GlimpseNetwork(
  (fc1): Linear(in_features=128, out_features=128, bias=True)
  (fc2): Linear(in_features=128, out_features=256, bias=True)
  (loc_fc1): Linear(in_features=2, out_features=128, bias=True)
  (loc_fc2): Linear(in_features=128, out_features=256, bias=True)
)
CoreNetwork(
  (stacked_lstm): LSTM(256, 256, num_layers=2, batch_first=True)
)
LocationNetwork(
  (fc): Linear(in_features=256, out_features=128, bias=True)
  (fc_lt): Linear(in_features=128, out_features=2, bias=True)
)
ActionNetwork(
  (fc): Linear(in_features=256, out_features=4, bias=True)
)
BaselineNetwork(
  (fc): Linear(in_features=256, out_features=1, bias=True)
)

[*] Train on 3600 samples, validate on 400 samples

Epoch: 1/500 - LR: 0.000300
train loss: 1.561 - train acc: 24.278 - val loss: 1.562 - val acc: 25.000 [*]

Epoch: 2/500 - LR: 0.000300
train loss: 1.566 - train acc: 25.111 - val loss: 1.570 - val acc: 25.000

Epoch: 3/500 - LR: 0.000300
train loss: 1.571 - train acc: 25.611 - val loss: 1.578 - val acc: 25.000
…
train loss: 1.086 - train acc: 64.611 - val loss: 2.559 - val acc: 21.750

Epoch: 161/500 - LR: 0.000000
train loss: 1.060 - train acc: 65.639 - val loss: 2.534 - val acc: 24.000

Epoch: 162/500 - LR: 0.000000
train loss: 1.079 - train acc: 64.972 - val loss: 2.557 - val acc: 21.000

Epoch: 163/500 - LR: 0.000000
train loss: 1.063 - train acc: 65.833 - val loss: 2.570 - val acc: 22.750

Epoch: 164/500 - LR: 0.000000
train loss: 1.067 - train acc: 65.778 - val loss: 2.588 - val acc: 20.250

Epoch: 165/500 - LR: 0.000000
train loss: 1.073 - train acc: 65.306 - val loss: 2.540 - val acc: 19.250
[!] No improvement in a while, stopping training.
GlimpseNetwork(
  (fc1): Linear(in_features=128, out_features=128, bias=True)
  (fc2): Linear(in_features=128, out_features=256, bias=True)
  (loc_fc1): Linear(in_features=2, out_features=128, bias=True)
  (loc_fc2): Linear(in_features=128, out_features=256, bias=True)
)
CoreNetwork(
  (i2h): Linear(in_features=256, out_features=256, bias=True)
  (h2h): Linear(in_features=256, out_features=256, bias=True)
)
LocationNetwork(
  (fc): Linear(in_features=256, out_features=2, bias=True)
)
ActionNetwork(
  (fc): Linear(in_features=256, out_features=4, bias=True)
)
BaselineNetwork(
  (fc): Linear(in_features=256, out_features=1, bias=True)
)

[*] Train on 14400 samples, validate on 1600 samples

Epoch: 1/500 - LR: 0.000100
train loss: 1.387 - train acc: 24.653 - action: 1.387, baseline: 0.226 reinforce: -1.267 - val loss: 1.387 - val acc: 24.875 [*]

Epoch: 2/500 - LR: 0.000100
train loss: 1.386 - train acc: 25.083 - action: 1.386, baseline: 0.230 reinforce: -1.300 - val loss: 1.386 - val acc: 24.875
…
train loss: 1.379 - train acc: 29.111 - action: 1.379, baseline: 0.267 reinforce: -1.553 - val loss: 1.391 - val acc: 25.625

Epoch: 13/500 - LR: 0.000100
train loss: 1.376 - train acc: 29.875 - action: 1.376, baseline: 0.275 reinforce: -1.622 - val loss: 1.390 - val acc: 27.438 [*]

Epoch: 14/500 - LR: 0.000100
train loss: 1.376 - train acc: 29.576 - action: 1.376, baseline: 0.273 reinforce: -1.606 - val loss: 1.389 - val acc: 27.312

Epoch: 15/500 - LR: 0.000100
train loss: 1.372 - train acc: 30.111 - action: 1.372, baseline: 0.276 reinforce: -1.631 - val loss: 1.396 - val acc: 25.938

Epoch: 16/500 - LR: 0.000100
GlimpseNetwork(
  (fc1): Linear(in_features=128, out_features=128, bias=True)
  (fc2): Linear(in_features=128, out_features=256, bias=True)
  (loc_fc1): Linear(in_features=2, out_features=128, bias=True)
  (loc_fc2): Linear(in_features=128, out_features=256, bias=True)
)
CoreNetwork(
  (i2h): Linear(in_features=256, out_features=256, bias=True)
  (h2h): Linear(in_features=256, out_features=256, bias=True)
)
LocationNetwork(
  (fc): Linear(in_features=256, out_features=2, bias=True)
)
ActionNetwork(
  (fc): Linear(in_features=256, out_features=4, bias=True)
)
BaselineNetwork(
  (fc): Linear(in_features=256, out_features=1, bias=True)
)

[*] Train on 14400 samples, validate on 1600 samples

Epoch: 1/500 - LR: 0.000300
train loss: 1.387 - train acc: 25.326 - action: 1.387, baseline: 0.265 reinforce: -1.739 - val loss: 1.387 - val acc: 25.312 [*]

Epoch: 2/500 - LR: 0.000300
train loss: 1.386 - train acc: 25.132 - action: 1.386, baseline: 0.262 reinforce: -1.718 - val loss: 1.386 - val acc: 25.500 [*]

Epoch: 3/500 - LR: 0.000300
train loss: 1.386 - train acc: 25.347 - action: 1.386, baseline: 0.264 reinforce: -1.733 - val loss: 1.387 - val acc: 25.875 [*]

Epoch: 4/500 - LR: 0.000300
train loss: 1.385 - train acc: 26.938 - action: 1.385, baseline: 0.278 reinforce: -1.806 - val loss: 1.387 - val acc: 25.562

Epoch: 5/500 - LR: 0.000300
GlimpseNetwork(
  (fc1): Linear(in_features=128, out_features=128, bias=True)
  (fc2): Linear(in_features=128, out_features=256, bias=True)
  (loc_fc1): Linear(in_features=2, out_features=128, bias=True)
  (loc_fc2): Linear(in_features=128, out_features=256, bias=True)
)
CoreNetwork(
  (i2h): Linear(in_features=256, out_features=256, bias=True)
  (h2h): Linear(in_features=256, out_features=256, bias=True)
)
LocationNetwork(
  (fc): Linear(in_features=256, out_features=2, bias=True)
)
ActionNetwork(
  (fc): Linear(in_features=256, out_features=4, bias=True)
)
BaselineNetwork(
  (fc): Linear(in_features=256, out_features=1, bias=True)
)

[*] Train on 14400 samples, validate on 1600 samples

Epoch: 1/500 - LR: 0.000300
train loss: 1.387 - train acc: 24.688 - action: 1.387, baseline: 0.218 reinforce: -1.278 - val loss: 1.387 - val acc: 23.250 [*]

Epoch: 2/500 - LR: 0.000300
train loss: 1.386 - train acc: 25.090 - action: 1.386, baseline: 0.225 reinforce: -1.387 - val loss: 1.387 - val acc: 24.375 [*]
…
train loss: 1.201 - train acc: 57.535 - action: 1.002, baseline: 0.239 reinforce: -0.040 - val loss: 3.950 - val acc: 26.125

Epoch: 21/500 - LR: 0.000300
train loss: 1.157 - train acc: 59.139 - action: 0.966, baseline: 0.237 reinforce: -0.045 - val loss: 4.315 - val acc: 25.750

Epoch: 22/500 - LR: 0.000300
train loss: 1.109 - train acc: 60.944 - action: 0.932, baseline: 0.232 reinforce: -0.055 - val loss: 4.563 - val acc: 25.500

Epoch: 23/500 - LR: 0.000300
train loss: 1.061 - train acc: 62.806 - action: 0.895, baseline: 0.228 reinforce: -0.062 - val loss: 4.718 - val acc: 25.812

Epoch: 24/500 - LR: 0.000300
GlimpseNetwork(
  (fc1): Linear(in_features=128, out_features=128, bias=True)
  (fc2): Linear(in_features=128, out_features=256, bias=True)
  (loc_fc1): Linear(in_features=2, out_features=128, bias=True)
  (loc_fc2): Linear(in_features=128, out_features=256, bias=True)
)
CoreNetwork(
  (i2h): Linear(in_features=256, out_features=256, bias=True)
  (h2h): Linear(in_features=256, out_features=256, bias=True)
)
LocationNetwork(
  (fc): Linear(in_features=256, out_features=2, bias=True)
)
ActionNetwork(
  (fc): Linear(in_features=256, out_features=4, bias=True)
)
BaselineNetwork(
  (fc): Linear(in_features=256, out_features=1, bias=True)
)
[*] Loading model from ./ckpt
/Users/KarakoA/Documents/Personal/RAM/VAM-2/ckpt/ram_3_8x8_8_ckpt.pth.tar
[*] Loaded ram_3_8x8_8_ckpt.pth.tar checkpoint @ epoch 23

[*] Train on 14400 samples, validate on 1600 samples

Epoch: 24/500 - LR: 0.000300
train loss: 1.177 - train acc: 60.514 - action: 0.994, baseline: 0.234 reinforce: -0.052 - val loss: 1.172 - val acc: 62.063 [*]

Epoch: 25/500 - LR: 0.000300
train loss: 1.155 - train acc: 61.931 - action: 0.942, baseline: 0.230 reinforce: -0.017 - val loss: 1.267 - val acc: 57.875

Epoch: 26/500 - LR: 0.000300
train loss: 1.092 - train acc: 63.354 - action: 0.906, baseline: 0.225 reinforce: -0.039 - val loss: 1.652 - val acc: 55.625

Epoch: 27/500 - LR: 0.000300
GlimpseNetwork(
  (fc1): Linear(in_features=128, out_features=128, bias=True)
  (fc2): Linear(in_features=128, out_features=256, bias=True)
  (loc_fc1): Linear(in_features=2, out_features=128, bias=True)
  (loc_fc2): Linear(in_features=128, out_features=256, bias=True)
)
CoreNetwork(
  (i2h): Linear(in_features=256, out_features=256, bias=True)
  (h2h): Linear(in_features=256, out_features=256, bias=True)
)
LocationNetwork(
  (fc): Linear(in_features=256, out_features=2, bias=True)
)
ActionNetwork(
  (fc): Linear(in_features=256, out_features=4, bias=True)
)
BaselineNetwork(
  (fc): Linear(in_features=256, out_features=1, bias=True)
)
[*] Loading model from ./ckpt
/Users/KarakoA/Documents/Personal/RAM/VAM-2/ckpt/ram_3_8x8_8_ckpt.pth.tar
[*] Loaded ram_3_8x8_8_ckpt.pth.tar checkpoint @ epoch 26

[*] Train on 14400 samples, validate on 1600 samples

Epoch: 27/500 - LR: 0.000300
train loss: 1.088 - train acc: 63.847 - action: 0.900, baseline: 0.224 reinforce: -0.036 - val loss: 1.152 - val acc: 61.938

Epoch: 28/500 - LR: 0.000300
GlimpseNetwork(
  (fc1): Linear(in_features=128, out_features=128, bias=True)
  (fc2): Linear(in_features=128, out_features=256, bias=True)
  (loc_fc1): Linear(in_features=2, out_features=128, bias=True)
  (loc_fc2): Linear(in_features=128, out_features=256, bias=True)
)
CoreNetwork(
  (i2h): Linear(in_features=256, out_features=256, bias=True)
  (h2h): Linear(in_features=256, out_features=256, bias=True)
)
LocationNetwork(
  (fc): Linear(in_features=256, out_features=2, bias=True)
)
ActionNetwork(
  (fc): Linear(in_features=256, out_features=4, bias=True)
)
BaselineNetwork(
  (fc): Linear(in_features=256, out_features=1, bias=True)
)
[*] Loading model from ./ckpt
/Users/KarakoA/Documents/Personal/RAM/VAM-2/ckpt/ram_3_8x8_8_ckpt.pth.tar
[*] Loaded ram_3_8x8_8_ckpt.pth.tar checkpoint @ epoch 27

[*] Train on 14400 samples, validate on 1600 samples

Epoch: 28/500 - LR: 0.000300
GlimpseNetwork(
  (fc1): Linear(in_features=128, out_features=128, bias=True)
  (fc2): Linear(in_features=128, out_features=256, bias=True)
  (loc_fc1): Linear(in_features=2, out_features=128, bias=True)
  (loc_fc2): Linear(in_features=128, out_features=256, bias=True)
)
CoreNetwork(
  (i2h): Linear(in_features=256, out_features=256, bias=True)
  (h2h): Linear(in_features=256, out_features=256, bias=True)
)
LocationNetwork(
  (fc): Linear(in_features=256, out_features=2, bias=True)
)
ActionNetwork(
  (fc): Linear(in_features=256, out_features=4, bias=True)
)
BaselineNetwork(
  (fc): Linear(in_features=256, out_features=1, bias=True)
)

[*] Train on 14400 samples, validate on 1600 samples

Epoch: 1/500 - LR: 0.000300
train loss: 1.314 - train acc: 24.493 - action: 1.387, baseline: 0.190 reinforce: -0.263 - val loss: 1.540 - val acc: 24.000 [*]

Epoch: 2/500 - LR: 0.000300
train loss: 1.530 - train acc: 25.347 - action: 1.386, baseline: 0.190 reinforce: -0.046 - val loss: 1.646 - val acc: 22.875
…
train loss: 1.469 - train acc: 45.556 - action: 1.224, baseline: 0.245 reinforce: -0.023 - val loss: 1.793 - val acc: 24.938

Epoch: 14/500 - LR: 0.000300
train loss: 1.428 - train acc: 47.958 - action: 1.184, baseline: 0.244 reinforce: -0.012 - val loss: 1.860 - val acc: 24.625

Epoch: 15/500 - LR: 0.000300
train loss: 1.388 - train acc: 50.667 - action: 1.144, baseline: 0.244 reinforce: -0.035 - val loss: 1.919 - val acc: 24.375

Epoch: 16/500 - LR: 0.000300
train loss: 1.340 - train acc: 53.285 - action: 1.098, baseline: 0.242 reinforce: -0.023 - val loss: 2.040 - val acc: 23.562

Epoch: 17/500 - LR: 0.000300
GlimpseNetwork(
  (fc1): Linear(in_features=128, out_features=128, bias=True)
  (fc2): Linear(in_features=128, out_features=256, bias=True)
  (loc_fc1): Linear(in_features=2, out_features=128, bias=True)
  (loc_fc2): Linear(in_features=128, out_features=256, bias=True)
)
CoreNetwork(
  (i2h): Linear(in_features=256, out_features=256, bias=True)
  (h2h): Linear(in_features=256, out_features=256, bias=True)
)
LocationNetwork(
  (fc): Linear(in_features=256, out_features=2, bias=True)
)
ActionNetwork(
  (fc): Linear(in_features=256, out_features=4, bias=True)
)
BaselineNetwork(
  (fc): Linear(in_features=256, out_features=1, bias=True)
)
[*] Loading model from ./ckpt
/Users/KarakoA/Documents/Personal/RAM/VAM-2/ckpt/ram_3_8x8_8_ckpt.pth.tar
[*] Loaded ram_3_8x8_8_ckpt.pth.tar checkpoint @ epoch 16

[*] Train on 14400 samples, validate on 1600 samples

Epoch: 17/500 - LR: 0.000300
train loss: 1.367 - train acc: 52.549 - action: 1.125, baseline: 0.243 reinforce: -0.036 - val loss: 1.376 - val acc: 50.938 [*]

Epoch: 18/500 - LR: 0.000300
train loss: 1.318 - train acc: 55.590 - action: 1.079, baseline: 0.240 reinforce: -0.040 - val loss: 1.412 - val acc: 48.500

Epoch: 19/500 - LR: 0.000300
train loss: 1.276 - train acc: 57.521 - action: 1.040, baseline: 0.236 reinforce: -0.022 - val loss: 1.463 - val acc: 47.063

Epoch: 20/500 - LR: 0.000300
GlimpseNetwork(
  (fc1): Linear(in_features=128, out_features=128, bias=True)
  (fc2): Linear(in_features=128, out_features=256, bias=True)
  (loc_fc1): Linear(in_features=2, out_features=128, bias=True)
  (loc_fc2): Linear(in_features=128, out_features=256, bias=True)
)
CoreNetwork(
  (i2h): Linear(in_features=256, out_features=256, bias=True)
  (h2h): Linear(in_features=256, out_features=256, bias=True)
)
LocationNetwork(
  (fc): Linear(in_features=256, out_features=2, bias=True)
)
ActionNetwork(
  (fc): Linear(in_features=256, out_features=4, bias=True)
)
BaselineNetwork(
  (fc): Linear(in_features=256, out_features=1, bias=True)
)
[*] Loading model from ./ckpt
/Users/KarakoA/Documents/Personal/RAM/VAM-2/ckpt/ram_3_8x8_8_ckpt.pth.tar
[*] Loaded ram_3_8x8_8_ckpt.pth.tar checkpoint @ epoch 19

[*] Train on 14400 samples, validate on 1600 samples

Epoch: 20/500 - LR: 0.000300
train loss: 1.259 - train acc: 58.299 - action: 1.025, baseline: 0.235 reinforce: -0.034 - val loss: 1.312 - val acc: 56.188 [*]

Epoch: 21/500 - LR: 0.000300
train loss: 1.209 - train acc: 61.014 - action: 0.982, baseline: 0.228 reinforce: -0.040 - val loss: 1.375 - val acc: 53.625

Epoch: 22/500 - LR: 0.000300
train loss: 1.163 - train acc: 62.896 - action: 0.940, baseline: 0.223 reinforce: -0.030 - val loss: 1.407 - val acc: 53.250

Epoch: 23/500 - LR: 0.000300
GlimpseNetwork(
  (fc1): Linear(in_features=128, out_features=128, bias=True)
  (fc2): Linear(in_features=128, out_features=256, bias=True)
  (loc_fc1): Linear(in_features=2, out_features=128, bias=True)
  (loc_fc2): Linear(in_features=128, out_features=256, bias=True)
)
CoreNetwork(
  (i2h): Linear(in_features=256, out_features=256, bias=True)
  (h2h): Linear(in_features=256, out_features=256, bias=True)
)
LocationNetwork(
  (fc): Linear(in_features=256, out_features=2, bias=True)
)
ActionNetwork(
  (fc): Linear(in_features=256, out_features=4, bias=True)
)
BaselineNetwork(
  (fc): Linear(in_features=256, out_features=1, bias=True)
)
[*] Loading model from ./ckpt
/Users/KarakoA/Documents/Personal/RAM/VAM-2/ckpt/ram_3_8x8_8_ckpt.pth.tar
[*] Loaded ram_3_8x8_8_ckpt.pth.tar checkpoint @ epoch 22

[*] Train on 14400 samples, validate on 1600 samples

Epoch: 23/500 - LR: 0.000300
train loss: 1.154 - train acc: 63.222 - action: 0.932, baseline: 0.222 reinforce: -0.022 - val loss: 1.179 - val acc: 61.688 [*]
…
