GlimpseNetwork(
  (fc1): Linear(in_features=128, out_features=128, bias=True)
  (fc2): Linear(in_features=128, out_features=256, bias=True)
  (loc_fc1): Linear(in_features=2, out_features=128, bias=True)
  (loc_fc2): Linear(in_features=128, out_features=256, bias=True)
)
CoreNetwork(
  (i2h): Linear(in_features=256, out_features=256, bias=True)
  (h2h): Linear(in_features=256, out_features=256, bias=True)
)
LocationNetwork(
  (fc): Linear(in_features=256, out_features=128, bias=True)
  (fc_lt): Linear(in_features=128, out_features=2, bias=True)
)
ActionNetwork(
  (fc): Linear(in_features=256, out_features=4, bias=True)
)
BaselineNetwork(
  (fc): Linear(in_features=256, out_features=1, bias=True)
)

[*] Train on 3600 samples, validate on 400 samples

Epoch: 1/500 - LR: 0.000300
GlimpseNetwork(
  (fc1): Linear(in_features=128, out_features=128, bias=True)
  (fc2): Linear(in_features=128, out_features=256, bias=True)
  (loc_fc1): Linear(in_features=2, out_features=128, bias=True)
  (loc_fc2): Linear(in_features=128, out_features=256, bias=True)
)
CoreNetwork(
  (i2h): Linear(in_features=256, out_features=256, bias=True)
  (h2h): Linear(in_features=256, out_features=256, bias=True)
)
LocationNetwork(
  (fc): Linear(in_features=256, out_features=128, bias=True)
  (fc_lt): Linear(in_features=128, out_features=2, bias=True)
)
ActionNetwork(
  (fc): Linear(in_features=256, out_features=4, bias=True)
)
BaselineNetwork(
  (fc): Linear(in_features=256, out_features=1, bias=True)
)

[*] Train on 3600 samples, validate on 400 samples

Epoch: 1/500 - LR: 0.000300
GlimpseNetwork(
  (fc1): Linear(in_features=128, out_features=128, bias=True)
  (fc2): Linear(in_features=128, out_features=256, bias=True)
  (loc_fc1): Linear(in_features=2, out_features=128, bias=True)
  (loc_fc2): Linear(in_features=128, out_features=256, bias=True)
)
CoreNetwork(
  (i2h): Linear(in_features=256, out_features=256, bias=True)
  (h2h): Linear(in_features=256, out_features=256, bias=True)
)
LocationNetwork(
  (fc): Linear(in_features=256, out_features=128, bias=True)
  (fc_lt): Linear(in_features=128, out_features=2, bias=True)
)
ActionNetwork(
  (fc): Linear(in_features=256, out_features=4, bias=True)
)
BaselineNetwork(
  (fc): Linear(in_features=256, out_features=1, bias=True)
)

[*] Train on 3600 samples, validate on 400 samples

Epoch: 1/500 - LR: 0.000300
GlimpseNetwork(
  (fc1): Linear(in_features=128, out_features=128, bias=True)
  (fc2): Linear(in_features=128, out_features=256, bias=True)
  (loc_fc1): Linear(in_features=2, out_features=128, bias=True)
  (loc_fc2): Linear(in_features=128, out_features=256, bias=True)
)
CoreNetwork(
  (i2h): Linear(in_features=256, out_features=256, bias=True)
  (h2h): Linear(in_features=256, out_features=256, bias=True)
)
LocationNetwork(
  (fc): Linear(in_features=256, out_features=128, bias=True)
  (fc_lt): Linear(in_features=128, out_features=2, bias=True)
)
ActionNetwork(
  (fc): Linear(in_features=256, out_features=4, bias=True)
)
BaselineNetwork(
  (fc): Linear(in_features=256, out_features=1, bias=True)
)

[*] Train on 3600 samples, validate on 400 samples

Epoch: 1/500 - LR: 0.000300
GlimpseNetwork(
  (fc1): Linear(in_features=128, out_features=128, bias=True)
  (fc2): Linear(in_features=128, out_features=256, bias=True)
  (loc_fc1): Linear(in_features=2, out_features=128, bias=True)
  (loc_fc2): Linear(in_features=128, out_features=256, bias=True)
)
CoreNetwork(
  (i2h): Linear(in_features=256, out_features=256, bias=True)
  (h2h): Linear(in_features=256, out_features=256, bias=True)
)
LocationNetwork(
  (fc): Linear(in_features=256, out_features=128, bias=True)
  (fc_lt): Linear(in_features=128, out_features=2, bias=True)
)
ActionNetwork(
  (fc): Linear(in_features=256, out_features=4, bias=True)
)
BaselineNetwork(
  (fc): Linear(in_features=256, out_features=1, bias=True)
)

[*] Train on 3600 samples, validate on 400 samples

Epoch: 1/500 - LR: 0.000300
train loss: -0.057 - train acc: 24.583 - val loss: -0.077 - val acc: 22.750 [*]

Epoch: 2/500 - LR: 0.000300
train loss: -0.062 - train acc: 25.556 - val loss: -0.082 - val acc: 22.750

Epoch: 3/500 - LR: 0.000300
train loss: -0.069 - train acc: 25.306 - val loss: -0.081 - val acc: 22.750
…
train loss: -0.064 - train acc: 25.778 - val loss: -0.031 - val acc: 21.250

Epoch: 89/500 - LR: 0.000003
train loss: -0.061 - train acc: 25.278 - val loss: -0.047 - val acc: 23.000

Epoch: 90/500 - LR: 0.000003
train loss: -0.061 - train acc: 25.333 - val loss: -0.044 - val acc: 23.000

Epoch: 91/500 - LR: 0.000003
train loss: -0.062 - train acc: 25.333 - val loss: -0.041 - val acc: 23.000

Epoch: 92/500 - LR: 0.000003
train loss: -0.061 - train acc: 25.278 - val loss: -0.032 - val acc: 21.500

Epoch: 93/500 - LR: 0.000003
train loss: -0.060 - train acc: 25.278 - val loss: -0.040 - val acc: 22.750

Epoch: 94/500 - LR: 0.000003
GlimpseNetwork(
  (fc1): Linear(in_features=128, out_features=128, bias=True)
  (fc2): Linear(in_features=128, out_features=256, bias=True)
  (loc_fc1): Linear(in_features=2, out_features=128, bias=True)
  (loc_fc2): Linear(in_features=128, out_features=256, bias=True)
)
CoreNetwork(
  (i2h): Linear(in_features=256, out_features=256, bias=True)
  (h2h): Linear(in_features=256, out_features=256, bias=True)
)
LocationNetwork(
  (fc): Linear(in_features=256, out_features=128, bias=True)
  (fc_lt): Linear(in_features=128, out_features=2, bias=True)
)
ActionNetwork(
  (fc): Linear(in_features=256, out_features=4, bias=True)
)
BaselineNetwork(
  (fc): Linear(in_features=256, out_features=1, bias=True)
)

[*] Train on 3600 samples, validate on 400 samples

Epoch: 1/500 - LR: 0.000300
train loss: 1.574 - train acc: 25.222 - val loss: 1.557 - val acc: 23.250 [*]

Epoch: 2/500 - LR: 0.000300
train loss: 1.565 - train acc: 24.778 - val loss: 1.558 - val acc: 23.500 [*]

Epoch: 3/500 - LR: 0.000300
train loss: 1.567 - train acc: 25.361 - val loss: 1.565 - val acc: 24.500 [*]
…
train loss: 0.983 - train acc: 69.778 - val loss: 2.551 - val acc: 27.000

Epoch: 92/500 - LR: 0.000003
train loss: 0.966 - train acc: 69.972 - val loss: 2.592 - val acc: 25.500

Epoch: 93/500 - LR: 0.000000
train loss: 0.963 - train acc: 71.111 - val loss: 2.597 - val acc: 27.250

Epoch: 94/500 - LR: 0.000000
train loss: 0.953 - train acc: 70.583 - val loss: 2.593 - val acc: 25.000

Epoch: 95/500 - LR: 0.000000
train loss: 0.980 - train acc: 69.583 - val loss: 2.600 - val acc: 26.250

Epoch: 96/500 - LR: 0.000000
train loss: 0.978 - train acc: 70.167 - val loss: 2.668 - val acc: 23.000

Epoch: 97/500 - LR: 0.000000
GlimpseNetwork(
  (fc1): Linear(in_features=128, out_features=128, bias=True)
  (fc2): Linear(in_features=128, out_features=256, bias=True)
  (loc_fc1): Linear(in_features=2, out_features=128, bias=True)
  (loc_fc2): Linear(in_features=128, out_features=256, bias=True)
)
CoreNetwork(
  (i2h): Linear(in_features=256, out_features=256, bias=True)
  (h2h): Linear(in_features=256, out_features=256, bias=True)
)
LocationNetwork(
  (fc): Linear(in_features=256, out_features=2, bias=True)
)
ActionNetwork(
  (fc): Linear(in_features=256, out_features=4, bias=True)
)
BaselineNetwork(
  (fc): Linear(in_features=256, out_features=1, bias=True)
)

[*] Train on 3600 samples, validate on 400 samples

Epoch: 1/500 - LR: 0.000300
GlimpseNetwork(
  (fc1): Linear(in_features=128, out_features=128, bias=True)
  (fc2): Linear(in_features=128, out_features=256, bias=True)
  (loc_fc1): Linear(in_features=2, out_features=128, bias=True)
  (loc_fc2): Linear(in_features=128, out_features=256, bias=True)
)
CoreNetwork(
  (i2h): Linear(in_features=256, out_features=256, bias=True)
  (h2h): Linear(in_features=256, out_features=256, bias=True)
)
LocationNetwork(
  (fc): Linear(in_features=256, out_features=2, bias=True)
)
ActionNetwork(
  (fc): Linear(in_features=256, out_features=4, bias=True)
)
BaselineNetwork(
  (fc): Linear(in_features=256, out_features=1, bias=True)
)

[*] Train on 3600 samples, validate on 400 samples

Epoch: 1/500 - LR: 0.000300
train loss: 1.583 - train acc: 24.611 - val loss: 1.552 - val acc: 21.500 [*]

Epoch: 2/500 - LR: 0.000300
train loss: 1.574 - train acc: 25.417 - val loss: 1.548 - val acc: 21.500

Epoch: 3/500 - LR: 0.000300
train loss: 1.568 - train acc: 25.556 - val loss: 1.547 - val acc: 21.500
…
train loss: 1.567 - train acc: 34.611 - val loss: 1.623 - val acc: 23.500

Epoch: 16/500 - LR: 0.000300
train loss: 1.563 - train acc: 36.444 - val loss: 1.681 - val acc: 22.500

Epoch: 17/500 - LR: 0.000300
train loss: 1.560 - train acc: 35.556 - val loss: 1.649 - val acc: 25.000

Epoch: 18/500 - LR: 0.000300
train loss: 1.550 - train acc: 36.750 - val loss: 1.680 - val acc: 24.500

Epoch: 19/500 - LR: 0.000300
train loss: 1.543 - train acc: 38.611 - val loss: 1.710 - val acc: 23.500

Epoch: 20/500 - LR: 0.000300
train loss: 1.533 - train acc: 40.000 - val loss: 1.734 - val acc: 19.500

Epoch: 21/500 - LR: 0.000300
GlimpseNetwork(
  (fc1): Linear(in_features=128, out_features=128, bias=True)
  (fc2): Linear(in_features=128, out_features=256, bias=True)
  (loc_fc1): Linear(in_features=2, out_features=128, bias=True)
  (loc_fc2): Linear(in_features=128, out_features=256, bias=True)
)
CoreNetwork(
  (i2h): Linear(in_features=256, out_features=256, bias=True)
  (h2h): Linear(in_features=256, out_features=256, bias=True)
)
LocationNetwork(
  (fc): Linear(in_features=256, out_features=2, bias=True)
)
ActionNetwork(
  (fc): Linear(in_features=256, out_features=4, bias=True)
)
BaselineNetwork(
  (fc): Linear(in_features=256, out_features=1, bias=True)
)

[*] Train on 3600 samples, validate on 400 samples

Epoch: 1/500 - LR: 0.000100
train loss: 1.567 - train acc: 24.139 - val loss: 1.561 - val acc: 23.500 [*]

Epoch: 2/500 - LR: 0.000100
train loss: 1.573 - train acc: 25.556 - val loss: 1.559 - val acc: 23.500

Epoch: 3/500 - LR: 0.000100
train loss: 1.561 - train acc: 23.917 - val loss: 1.558 - val acc: 23.500
…
train loss: 1.381 - train acc: 28.319 - action: 1.381, baseline: 0.335 reinforce: -6.881 - val loss: 1.388 - val acc: 25.750

Epoch: 9/500 - LR: 0.000100
train loss: 1.379 - train acc: 28.868 - action: 1.379, baseline: 0.345 reinforce: -7.068 - val loss: 1.389 - val acc: 25.562

Epoch: 10/500 - LR: 0.000100
train loss: 1.377 - train acc: 29.181 - action: 1.377, baseline: 0.350 reinforce: -7.143 - val loss: 1.395 - val acc: 25.688

Epoch: 11/500 - LR: 0.000100
train loss: 1.374 - train acc: 30.243 - action: 1.374, baseline: 0.360 reinforce: -7.306 - val loss: 1.396 - val acc: 24.938

Epoch: 12/500 - LR: 0.000100
GlimpseNetwork(
  (fc1): Linear(in_features=128, out_features=128, bias=True)
  (fc2): Linear(in_features=128, out_features=256, bias=True)
  (loc_fc1): Linear(in_features=2, out_features=128, bias=True)
  (loc_fc2): Linear(in_features=128, out_features=256, bias=True)
)
CoreNetwork(
  (i2h): Linear(in_features=256, out_features=256, bias=True)
  (h2h): Linear(in_features=256, out_features=256, bias=True)
)
LocationNetwork(
  (fc): Linear(in_features=256, out_features=2, bias=True)
)
ActionNetwork(
  (fc): Linear(in_features=256, out_features=4, bias=True)
)
BaselineNetwork(
  (fc): Linear(in_features=256, out_features=1, bias=True)
)
[*] Loading model from ./ckpt
/Users/KarakoA/Documents/Personal/RAM/VAM-2/src/ckpt/ram_6_8x8_8_model_best.pth.tar
[*] Loaded ram_6_8x8_8_model_best.pth.tar checkpoint @ epoch 79 with best valid acc of 92.438
GlimpseNetwork(
  (fc1): Linear(in_features=128, out_features=128, bias=True)
  (fc2): Linear(in_features=128, out_features=256, bias=True)
  (loc_fc1): Linear(in_features=2, out_features=128, bias=True)
  (loc_fc2): Linear(in_features=128, out_features=256, bias=True)
)
CoreNetwork(
  (i2h): Linear(in_features=256, out_features=256, bias=True)
  (h2h): Linear(in_features=256, out_features=256, bias=True)
)
LocationNetwork(
  (fc): Linear(in_features=256, out_features=2, bias=True)
)
ActionNetwork(
  (fc): Linear(in_features=256, out_features=4, bias=True)
)
BaselineNetwork(
  (fc): Linear(in_features=256, out_features=1, bias=True)
)

[*] Train on 14400 samples, validate on 1600 samples

Epoch: 1/500 - LR: 0.000100
GlimpseNetwork(
  (fc1): Linear(in_features=128, out_features=128, bias=True)
  (fc2): Linear(in_features=128, out_features=256, bias=True)
  (loc_fc1): Linear(in_features=2, out_features=128, bias=True)
  (loc_fc2): Linear(in_features=128, out_features=256, bias=True)
)
CoreNetwork(
  (i2h): Linear(in_features=256, out_features=256, bias=True)
  (h2h): Linear(in_features=256, out_features=256, bias=True)
)
LocationNetwork(
  (fc): Linear(in_features=256, out_features=2, bias=True)
)
ActionNetwork(
  (fc): Linear(in_features=256, out_features=4, bias=True)
)
BaselineNetwork(
  (fc): Linear(in_features=256, out_features=1, bias=True)
)

[*] Train on 14400 samples, validate on 1600 samples

Epoch: 1/500 - LR: 0.000100
GlimpseNetwork(
  (fc1): Linear(in_features=128, out_features=128, bias=True)
  (fc2): Linear(in_features=128, out_features=256, bias=True)
  (loc_fc1): Linear(in_features=2, out_features=128, bias=True)
  (loc_fc2): Linear(in_features=128, out_features=256, bias=True)
)
CoreNetwork(
  (i2h): Linear(in_features=256, out_features=256, bias=True)
  (h2h): Linear(in_features=256, out_features=256, bias=True)
)
LocationNetwork(
  (fc): Linear(in_features=256, out_features=2, bias=True)
)
ActionNetwork(
  (fc): Linear(in_features=256, out_features=4, bias=True)
)
BaselineNetwork(
  (fc): Linear(in_features=256, out_features=1, bias=True)
)

[*] Train on 14400 samples, validate on 1600 samples

Epoch: 1/500 - LR: 0.000100
train loss: -0.419 - train acc: 25.000 - action: 1.387, baseline: 0.208 reinforce: -2.013 - val loss: 0.537 - val acc: 24.062 [*]

Epoch: 2/500 - LR: 0.000100
GlimpseNetwork(
  (fc1): Linear(in_features=128, out_features=128, bias=True)
  (fc2): Linear(in_features=128, out_features=256, bias=True)
  (loc_fc1): Linear(in_features=2, out_features=128, bias=True)
  (loc_fc2): Linear(in_features=128, out_features=256, bias=True)
)
CoreNetwork(
  (i2h): Linear(in_features=256, out_features=256, bias=True)
  (h2h): Linear(in_features=256, out_features=256, bias=True)
)
LocationNetwork(
  (fc): Linear(in_features=256, out_features=2, bias=True)
)
ActionNetwork(
  (fc): Linear(in_features=256, out_features=4, bias=True)
)
BaselineNetwork(
  (fc): Linear(in_features=256, out_features=1, bias=True)
)

[*] Train on 14400 samples, validate on 1600 samples

Epoch: 1/500 - LR: 0.000100
GlimpseNetwork(
  (fc1): Linear(in_features=128, out_features=128, bias=True)
  (fc2): Linear(in_features=128, out_features=256, bias=True)
  (loc_fc1): Linear(in_features=2, out_features=128, bias=True)
  (loc_fc2): Linear(in_features=128, out_features=256, bias=True)
)
CoreNetwork(
  (i2h): Linear(in_features=256, out_features=256, bias=True)
  (h2h): Linear(in_features=256, out_features=256, bias=True)
)
LocationNetwork(
  (fc): Linear(in_features=256, out_features=2, bias=True)
)
ActionNetwork(
  (fc): Linear(in_features=256, out_features=4, bias=True)
)
BaselineNetwork(
  (fc): Linear(in_features=256, out_features=1, bias=True)
)

[*] Train on 14400 samples, validate on 1600 samples

Epoch: 1/500 - LR: 0.001000
train loss: 0.879 - train acc: 24.924 - action: 1.387, baseline: 0.196 reinforce: -0.704 - val loss: 2.241 - val acc: 25.938 [*]

Epoch: 2/500 - LR: 0.001000
train loss: 1.500 - train acc: 28.938 - action: 1.372, baseline: 0.206 reinforce: -0.078 - val loss: 0.673 - val acc: 29.688 [*]
…
train loss: 0.007 - train acc: 99.764 - action: 0.006, baseline: 0.002 reinforce: -0.001 - val loss: 0.207 - val acc: 98.625

Epoch: 380/1000 - LR: 0.000010
train loss: 0.006 - train acc: 99.806 - action: 0.005, baseline: 0.002 reinforce: -0.001 - val loss: 0.166 - val acc: 98.812

Epoch: 381/1000 - LR: 0.000010
train loss: 0.009 - train acc: 99.778 - action: 0.005, baseline: 0.002 reinforce: 0.001 - val loss: 0.202 - val acc: 98.688

Epoch: 382/1000 - LR: 0.000010
train loss: 0.007 - train acc: 99.771 - action: 0.006, baseline: 0.002 reinforce: -0.002 - val loss: 0.176 - val acc: 98.812
[!] No improvement in a while, stopping training.
GlimpseNetwork(
  (fc1): Linear(in_features=128, out_features=128, bias=True)
  (fc2): Linear(in_features=128, out_features=256, bias=True)
  (loc_fc1): Linear(in_features=2, out_features=128, bias=True)
  (loc_fc2): Linear(in_features=128, out_features=256, bias=True)
)
CoreNetwork(
  (i2h): Linear(in_features=256, out_features=256, bias=True)
  (h2h): Linear(in_features=256, out_features=256, bias=True)
)
LocationNetwork(
  (fc): Linear(in_features=256, out_features=2, bias=True)
)
ActionNetwork(
  (fc): Linear(in_features=256, out_features=4, bias=True)
)
BaselineNetwork(
  (fc): Linear(in_features=256, out_features=1, bias=True)
)
[*] Loading model from ./ckpt
/Users/KarakoA/Documents/Personal/RAM/VAM-2/src/ckpt/ram_6_8x8_8_model_best.pth.tar
[*] Loaded ram_6_8x8_8_model_best.pth.tar checkpoint @ epoch 281 with best valid acc of 99.500
[*] Test Acc: 1556/1600 (97.25% - 2.75%)
GlimpseNetwork(
  (fc1): Linear(in_features=128, out_features=128, bias=True)
  (fc2): Linear(in_features=128, out_features=256, bias=True)
  (loc_fc1): Linear(in_features=2, out_features=128, bias=True)
  (loc_fc2): Linear(in_features=128, out_features=256, bias=True)
)
CoreNetwork(
  (i2h): Linear(in_features=256, out_features=256, bias=True)
  (h2h): Linear(in_features=256, out_features=256, bias=True)
)
LocationNetwork(
  (fc): Linear(in_features=256, out_features=2, bias=True)
)
ActionNetwork(
  (fc): Linear(in_features=256, out_features=4, bias=True)
)
BaselineNetwork(
  (fc): Linear(in_features=256, out_features=1, bias=True)
)
[*] Loading model from ./ckpt
/Users/KarakoA/Documents/Personal/RAM/VAM-2/src/ckpt/ram_6_8x8_8_model_best.pth.tar
[*] Loaded ram_6_8x8_8_model_best.pth.tar checkpoint @ epoch 281 with best valid acc of 99.500
[*] Test Acc: 1556/1600 (97.25% - 2.75%)
GlimpseNetwork(
  (conv1): Conv2d(2, 16, kernel_size=(3, 3), stride=(1, 1), padding=(1, 1))
  (conv2): Conv2d(16, 16, kernel_size=(3, 3), stride=(1, 1), padding=(1, 1))
  (bn1): BatchNorm2d(16, eps=1e-05, momentum=0.1, affine=True, track_running_stats=True)
  (max_pool1): MaxPool2d(kernel_size=3, stride=3, padding=1, dilation=1, ceil_mode=False)
  (conv3): Conv2d(16, 32, kernel_size=(3, 3), stride=(1, 1), padding=(1, 1))
  (max_pool2): MaxPool2d(kernel_size=3, stride=3, padding=1, dilation=1, ceil_mode=False)
  (fc1): Linear(in_features=32, out_features=128, bias=True)
  (fc2): Linear(in_features=128, out_features=256, bias=True)
  (bn2): BatchNorm1d(256, eps=1e-05, momentum=0.1, affine=True, track_running_stats=True)
  (loc_fc1): Linear(in_features=2, out_features=128, bias=True)
  (loc_fc2): Linear(in_features=128, out_features=256, bias=True)
)
CoreNetwork(
  (stacked_lstm): LSTM(256, 256, num_layers=2, batch_first=True)
)
LocationNetwork(
  (fc): Linear(in_features=256, out_features=2, bias=True)
)
ActionNetwork(
  (fc): Linear(in_features=256, out_features=4, bias=True)
)
BaselineNetwork(
  (fc): Linear(in_features=256, out_features=1, bias=True)
)

[*] Train on 14400 samples, validate on 1600 samples

Epoch: 1/1000 - LR: 0.001000
train loss: 1.170 - train acc: 41.215 - action: 1.217, baseline: 0.239 reinforce: -0.286 - val loss: 5.036 - val acc: 25.938 [*]

Epoch: 2/1000 - LR: 0.001000
train loss: 1.019 - train acc: 56.326 - action: 0.952, baseline: 0.240 reinforce: -0.174 - val loss: 8.996 - val acc: 25.688
…
train loss: 0.856 - train acc: 65.292 - action: 0.780, baseline: 0.216 reinforce: -0.140 - val loss: 12.049 - val acc: 25.125

Epoch: 4/1000 - LR: 0.001000
train loss: 0.878 - train acc: 68.201 - action: 0.705, baseline: 0.197 reinforce: -0.024 - val loss: 12.390 - val acc: 25.062

Epoch: 5/1000 - LR: 0.001000
train loss: 0.813 - train acc: 71.444 - action: 0.652, baseline: 0.183 reinforce: -0.022 - val loss: 16.484 - val acc: 24.875

Epoch: 6/1000 - LR: 0.001000
train loss: 0.764 - train acc: 73.729 - action: 0.610, baseline: 0.175 reinforce: -0.021 - val loss: 14.824 - val acc: 24.875

Epoch: 7/1000 - LR: 0.001000
GlimpseNetwork(
  (fc1): Linear(in_features=128, out_features=128, bias=True)
  (fc2): Linear(in_features=128, out_features=256, bias=True)
  (loc_fc1): Linear(in_features=2, out_features=128, bias=True)
  (loc_fc2): Linear(in_features=128, out_features=256, bias=True)
)
CoreNetwork(
  (stacked_lstm): LSTM(256, 256, num_layers=2, batch_first=True)
)
LocationNetwork(
  (fc): Linear(in_features=256, out_features=2, bias=True)
)
ActionNetwork(
  (fc): Linear(in_features=256, out_features=4, bias=True)
)
BaselineNetwork(
  (fc): Linear(in_features=256, out_features=1, bias=True)
)

[*] Train on 14400 samples, validate on 1600 samples

Epoch: 1/1000 - LR: 0.001000
train loss: 1.244 - train acc: 25.125 - action: 1.387, baseline: 0.195 reinforce: -0.339 - val loss: 1.362 - val acc: 24.188 [*]

Epoch: 2/1000 - LR: 0.001000
train loss: 1.535 - train acc: 25.035 - action: 1.387, baseline: 0.188 reinforce: -0.039 - val loss: 1.568 - val acc: 24.188
…
train loss: 1.564 - train acc: 24.806 - action: 1.386, baseline: 0.187 reinforce: -0.009 - val loss: 1.645 - val acc: 24.188

Epoch: 60/1000 - LR: 0.001000
train loss: 1.583 - train acc: 24.833 - action: 1.387, baseline: 0.187 reinforce: 0.010 - val loss: 1.731 - val acc: 23.562

Epoch: 61/1000 - LR: 0.001000
train loss: 1.563 - train acc: 24.847 - action: 1.387, baseline: 0.187 reinforce: -0.011 - val loss: 1.678 - val acc: 23.562

Epoch: 62/1000 - LR: 0.001000
train loss: 1.569 - train acc: 24.903 - action: 1.386, baseline: 0.187 reinforce: -0.004 - val loss: 1.514 - val acc: 25.188

Epoch: 63/1000 - LR: 0.001000
GlimpseNetwork(
  (conv1): Conv2d(2, 16, kernel_size=(3, 3), stride=(1, 1), padding=(1, 1))
  (conv2): Conv2d(16, 16, kernel_size=(3, 3), stride=(1, 1), padding=(1, 1))
  (bn1): BatchNorm2d(16, eps=1e-05, momentum=0.1, affine=True, track_running_stats=True)
  (max_pool1): MaxPool2d(kernel_size=3, stride=3, padding=1, dilation=1, ceil_mode=False)
  (conv3): Conv2d(16, 32, kernel_size=(3, 3), stride=(1, 1), padding=(1, 1))
  (max_pool2): MaxPool2d(kernel_size=3, stride=3, padding=1, dilation=1, ceil_mode=False)
  (fc1): Linear(in_features=32, out_features=128, bias=True)
  (fc2): Linear(in_features=128, out_features=256, bias=True)
  (bn2): BatchNorm1d(256, eps=1e-05, momentum=0.1, affine=True, track_running_stats=True)
  (loc_fc1): Linear(in_features=2, out_features=128, bias=True)
  (loc_fc2): Linear(in_features=128, out_features=256, bias=True)
)
CoreNetwork(
  (i2h): Linear(in_features=256, out_features=256, bias=True)
  (h2h): Linear(in_features=256, out_features=256, bias=True)
)
LocationNetwork(
  (fc): Linear(in_features=256, out_features=2, bias=True)
)
ActionNetwork(
  (fc): Linear(in_features=256, out_features=4, bias=True)
)
BaselineNetwork(
  (fc): Linear(in_features=256, out_features=1, bias=True)
)

[*] Train on 14400 samples, validate on 1600 samples

Epoch: 1/1000 - LR: 0.003000
train loss: 1.409 - train acc: 33.111 - action: 1.332, baseline: 0.221 reinforce: -0.144 - val loss: 1.858 - val acc: 28.000 [*]

Epoch: 2/1000 - LR: 0.003000
train loss: 1.412 - train acc: 44.160 - action: 1.203, baseline: 0.241 reinforce: -0.032 - val loss: 6.599 - val acc: 26.688

Epoch: 3/1000 - LR: 0.003000
train loss: 1.261 - train acc: 52.396 - action: 1.037, baseline: 0.238 reinforce: -0.013 - val loss: 8.380 - val acc: 25.625

Epoch: 4/1000 - LR: 0.003000
train loss: 1.100 - train acc: 59.361 - action: 0.902, baseline: 0.226 reinforce: -0.029 - val loss: 17.582 - val acc: 25.750

Epoch: 5/1000 - LR: 0.003000
GlimpseNetwork(
  (conv1): Conv2d(2, 16, kernel_size=(3, 3), stride=(1, 1), padding=(1, 1))
  (conv2): Conv2d(16, 16, kernel_size=(3, 3), stride=(1, 1), padding=(1, 1))
  (bn1): BatchNorm2d(16, eps=1e-05, momentum=0.1, affine=True, track_running_stats=True)
  (max_pool1): MaxPool2d(kernel_size=3, stride=3, padding=1, dilation=1, ceil_mode=False)
  (conv3): Conv2d(16, 32, kernel_size=(3, 3), stride=(1, 1), padding=(1, 1))
  (max_pool2): MaxPool2d(kernel_size=3, stride=3, padding=1, dilation=1, ceil_mode=False)
  (fc1): Linear(in_features=32, out_features=128, bias=True)
  (fc2): Linear(in_features=128, out_features=256, bias=True)
  (bn2): BatchNorm1d(256, eps=1e-05, momentum=0.1, affine=True, track_running_stats=True)
  (loc_fc1): Linear(in_features=2, out_features=128, bias=True)
  (loc_fc2): Linear(in_features=128, out_features=256, bias=True)
)
CoreNetwork(
  (i2h): Linear(in_features=256, out_features=256, bias=True)
  (h2h): Linear(in_features=256, out_features=256, bias=True)
)
LocationNetwork(
  (fc): Linear(in_features=256, out_features=2, bias=True)
)
ActionNetwork(
  (fc): Linear(in_features=256, out_features=4, bias=True)
)
BaselineNetwork(
  (fc): Linear(in_features=256, out_features=1, bias=True)
)

[*] Train on 14400 samples, validate on 1600 samples

Epoch: 1/1000 - LR: 0.000300
train loss: 1.116 - train acc: 35.104 - action: 1.307, baseline: 0.230 reinforce: -0.422 - val loss: 4.757 - val acc: 27.625 [*]

Epoch: 2/1000 - LR: 0.000300
train loss: 1.134 - train acc: 48.778 - action: 1.090, baseline: 0.244 reinforce: -0.200 - val loss: 9.442 - val acc: 25.375
…
train loss: 0.093 - train acc: 70.160 - action: 0.688, baseline: 0.197 reinforce: -0.112 - val loss: 10.806 - val acc: 23.812

Epoch: 6/1000 - LR: 0.001000
train loss: 0.108 - train acc: 72.590 - action: 0.623, baseline: 0.184 reinforce: -0.082 - val loss: 9.954 - val acc: 23.812

Epoch: 7/1000 - LR: 0.001000
train loss: 0.119 - train acc: 74.097 - action: 0.601, baseline: 0.178 reinforce: -0.065 - val loss: 11.115 - val acc: 23.812

Epoch: 8/1000 - LR: 0.001000
train loss: 0.110 - train acc: 75.764 - action: 0.574, baseline: 0.171 reinforce: -0.066 - val loss: 9.533 - val acc: 23.812

Epoch: 9/1000 - LR: 0.001000
GlimpseNetwork(
  (conv1): Conv2d(2, 16, kernel_size=(3, 3), stride=(1, 1), padding=(1, 1))
  (conv2): Conv2d(16, 16, kernel_size=(3, 3), stride=(1, 1), padding=(1, 1))
  (bn1): BatchNorm2d(16, eps=1e-05, momentum=0.1, affine=True, track_running_stats=True)
  (max_pool1): MaxPool2d(kernel_size=3, stride=3, padding=1, dilation=1, ceil_mode=False)
  (conv3): Conv2d(16, 32, kernel_size=(3, 3), stride=(1, 1), padding=(1, 1))
  (max_pool2): MaxPool2d(kernel_size=3, stride=3, padding=1, dilation=1, ceil_mode=False)
  (fc1): Linear(in_features=32, out_features=128, bias=True)
  (fc2): Linear(in_features=128, out_features=256, bias=True)
  (bn2): BatchNorm1d(256, eps=1e-05, momentum=0.1, affine=True, track_running_stats=True)
  (loc_fc1): Linear(in_features=2, out_features=128, bias=True)
  (loc_fc2): Linear(in_features=128, out_features=256, bias=True)
)
CoreNetwork(
  (i2h): Linear(in_features=256, out_features=256, bias=True)
  (h2h): Linear(in_features=256, out_features=256, bias=True)
)
LocationNetwork(
  (fc): Linear(in_features=256, out_features=2, bias=True)
)
ActionNetwork(
  (fc): Linear(in_features=256, out_features=4, bias=True)
)
BaselineNetwork(
  (fc): Linear(in_features=256, out_features=1, bias=True)
)

[*] Train on 14400 samples, validate on 1600 samples

Epoch: 1/1000 - LR: 0.001000
train loss: -2.177 - train acc: 34.889 - action: 1.303, baseline: 0.334 reinforce: -2.525 - val loss: -0.005 - val acc: 39.438 [*]

Epoch: 2/1000 - LR: 0.001000
train loss: 0.101 - train acc: 51.639 - action: 1.016, baseline: 0.240 reinforce: -0.149 - val loss: 6.025 - val acc: 25.500
…
train loss: 0.197 - train acc: 25.188 - action: 1.386, baseline: 0.189 reinforce: -0.005 - val loss: 0.176 - val acc: 25.125

Epoch: 46/1000 - LR: 0.001000
train loss: 0.197 - train acc: 25.243 - action: 1.387, baseline: 0.189 reinforce: -0.006 - val loss: 0.354 - val acc: 24.625

Epoch: 47/1000 - LR: 0.001000
train loss: 0.219 - train acc: 24.146 - action: 1.387, baseline: 0.183 reinforce: 0.021 - val loss: 0.082 - val acc: 24.625

Epoch: 48/1000 - LR: 0.001000
train loss: 0.201 - train acc: 24.444 - action: 1.386, baseline: 0.185 reinforce: 0.003 - val loss: 0.120 - val acc: 24.625

Epoch: 49/1000 - LR: 0.001000
GlimpseNetwork(
  (fc1): Linear(in_features=128, out_features=128, bias=True)
  (fc2): Linear(in_features=128, out_features=256, bias=True)
  (loc_fc1): Linear(in_features=2, out_features=128, bias=True)
  (loc_fc2): Linear(in_features=128, out_features=256, bias=True)
)
CoreNetwork(
  (stacked_lstm): LSTM(256, 256, num_layers=2, batch_first=True)
)
LocationNetwork(
  (fc): Linear(in_features=256, out_features=2, bias=True)
)
ActionNetwork(
  (fc): Linear(in_features=256, out_features=4, bias=True)
)
BaselineNetwork(
  (fc): Linear(in_features=256, out_features=1, bias=True)
)

[*] Train on 14400 samples, validate on 1600 samples

Epoch: 1/1000 - LR: 0.001000
train loss: 1.363 - train acc: 24.514 - action: 1.387, baseline: 0.187 reinforce: -0.211 - val loss: 1.364 - val acc: 24.312 [*]

Epoch: 2/1000 - LR: 0.001000
GlimpseNetwork(
  (fc1): Linear(in_features=128, out_features=128, bias=True)
  (fc2): Linear(in_features=128, out_features=256, bias=True)
  (loc_fc1): Linear(in_features=2, out_features=128, bias=True)
  (loc_fc2): Linear(in_features=128, out_features=256, bias=True)
)
CoreNetwork(
  (stacked_lstm): LSTM(256, 256, num_layers=2, batch_first=True)
)
LocationNetwork(
  (fc): Linear(in_features=256, out_features=2, bias=True)
)
ActionNetwork(
  (fc): Linear(in_features=256, out_features=4, bias=True)
)
BaselineNetwork(
  (fc): Linear(in_features=256, out_features=1, bias=True)
)

[*] Train on 14400 samples, validate on 1600 samples

Epoch: 1/1000 - LR: 0.001000
train loss: 1.072 - train acc: 24.986 - action: 1.387, baseline: 0.201 reinforce: -0.516 - val loss: 1.120 - val acc: 27.062 [*]

Epoch: 2/1000 - LR: 0.001000
