GlimpseNetwork(
  (fc1): Linear(in_features=128, out_features=128, bias=True)
  (fc2): Linear(in_features=128, out_features=256, bias=True)
  (loc_fc1): Linear(in_features=2, out_features=128, bias=True)
  (loc_fc2): Linear(in_features=128, out_features=256, bias=True)
)
CoreNetwork(
  (i2h): Linear(in_features=256, out_features=256, bias=True)
  (h2h): Linear(in_features=256, out_features=256, bias=True)
)
LocationNetwork(
  (fc): Linear(in_features=256, out_features=128, bias=True)
  (fc_lt): Linear(in_features=128, out_features=2, bias=True)
)
ActionNetwork(
  (fc): Linear(in_features=256, out_features=4, bias=True)
)
BaselineNetwork(
  (fc): Linear(in_features=256, out_features=1, bias=True)
)

[*] Train on 3600 samples, validate on 400 samples

Epoch: 1/500 - LR: 0.000300
GlimpseNetwork(
  (fc1): Linear(in_features=128, out_features=128, bias=True)
  (fc2): Linear(in_features=128, out_features=256, bias=True)
  (loc_fc1): Linear(in_features=2, out_features=128, bias=True)
  (loc_fc2): Linear(in_features=128, out_features=256, bias=True)
)
CoreNetwork(
  (i2h): Linear(in_features=256, out_features=256, bias=True)
  (h2h): Linear(in_features=256, out_features=256, bias=True)
)
LocationNetwork(
  (fc): Linear(in_features=256, out_features=128, bias=True)
  (fc_lt): Linear(in_features=128, out_features=2, bias=True)
)
ActionNetwork(
  (fc): Linear(in_features=256, out_features=4, bias=True)
)
BaselineNetwork(
  (fc): Linear(in_features=256, out_features=1, bias=True)
)

[*] Train on 3600 samples, validate on 400 samples

Epoch: 1/500 - LR: 0.000300
GlimpseNetwork(
  (fc1): Linear(in_features=128, out_features=128, bias=True)
  (fc2): Linear(in_features=128, out_features=256, bias=True)
  (loc_fc1): Linear(in_features=2, out_features=128, bias=True)
  (loc_fc2): Linear(in_features=128, out_features=256, bias=True)
)
CoreNetwork(
  (i2h): Linear(in_features=256, out_features=256, bias=True)
  (h2h): Linear(in_features=256, out_features=256, bias=True)
)
LocationNetwork(
  (fc): Linear(in_features=256, out_features=128, bias=True)
  (fc_lt): Linear(in_features=128, out_features=2, bias=True)
)
ActionNetwork(
  (fc): Linear(in_features=256, out_features=4, bias=True)
)
BaselineNetwork(
  (fc): Linear(in_features=256, out_features=1, bias=True)
)

[*] Train on 3600 samples, validate on 400 samples

Epoch: 1/500 - LR: 0.000300
GlimpseNetwork(
  (fc1): Linear(in_features=128, out_features=128, bias=True)
  (fc2): Linear(in_features=128, out_features=256, bias=True)
  (loc_fc1): Linear(in_features=2, out_features=128, bias=True)
  (loc_fc2): Linear(in_features=128, out_features=256, bias=True)
)
CoreNetwork(
  (i2h): Linear(in_features=256, out_features=256, bias=True)
  (h2h): Linear(in_features=256, out_features=256, bias=True)
)
LocationNetwork(
  (fc): Linear(in_features=256, out_features=128, bias=True)
  (fc_lt): Linear(in_features=128, out_features=2, bias=True)
)
ActionNetwork(
  (fc): Linear(in_features=256, out_features=4, bias=True)
)
BaselineNetwork(
  (fc): Linear(in_features=256, out_features=1, bias=True)
)

[*] Train on 3600 samples, validate on 400 samples

Epoch: 1/500 - LR: 0.000300
GlimpseNetwork(
  (fc1): Linear(in_features=128, out_features=128, bias=True)
  (fc2): Linear(in_features=128, out_features=256, bias=True)
  (loc_fc1): Linear(in_features=2, out_features=128, bias=True)
  (loc_fc2): Linear(in_features=128, out_features=256, bias=True)
)
CoreNetwork(
  (i2h): Linear(in_features=256, out_features=256, bias=True)
  (h2h): Linear(in_features=256, out_features=256, bias=True)
)
LocationNetwork(
  (fc): Linear(in_features=256, out_features=128, bias=True)
  (fc_lt): Linear(in_features=128, out_features=2, bias=True)
)
ActionNetwork(
  (fc): Linear(in_features=256, out_features=4, bias=True)
)
BaselineNetwork(
  (fc): Linear(in_features=256, out_features=1, bias=True)
)

[*] Train on 3600 samples, validate on 400 samples

Epoch: 1/500 - LR: 0.000300
train loss: -0.057 - train acc: 24.583 - val loss: -0.077 - val acc: 22.750 [*]

Epoch: 2/500 - LR: 0.000300
train loss: -0.062 - train acc: 25.556 - val loss: -0.082 - val acc: 22.750

Epoch: 3/500 - LR: 0.000300
train loss: -0.069 - train acc: 25.306 - val loss: -0.081 - val acc: 22.750
…
train loss: -0.064 - train acc: 25.778 - val loss: -0.031 - val acc: 21.250

Epoch: 89/500 - LR: 0.000003
train loss: -0.061 - train acc: 25.278 - val loss: -0.047 - val acc: 23.000

Epoch: 90/500 - LR: 0.000003
train loss: -0.061 - train acc: 25.333 - val loss: -0.044 - val acc: 23.000

Epoch: 91/500 - LR: 0.000003
train loss: -0.062 - train acc: 25.333 - val loss: -0.041 - val acc: 23.000

Epoch: 92/500 - LR: 0.000003
train loss: -0.061 - train acc: 25.278 - val loss: -0.032 - val acc: 21.500

Epoch: 93/500 - LR: 0.000003
train loss: -0.060 - train acc: 25.278 - val loss: -0.040 - val acc: 22.750

Epoch: 94/500 - LR: 0.000003
GlimpseNetwork(
  (fc1): Linear(in_features=128, out_features=128, bias=True)
  (fc2): Linear(in_features=128, out_features=256, bias=True)
  (loc_fc1): Linear(in_features=2, out_features=128, bias=True)
  (loc_fc2): Linear(in_features=128, out_features=256, bias=True)
)
CoreNetwork(
  (i2h): Linear(in_features=256, out_features=256, bias=True)
  (h2h): Linear(in_features=256, out_features=256, bias=True)
)
LocationNetwork(
  (fc): Linear(in_features=256, out_features=128, bias=True)
  (fc_lt): Linear(in_features=128, out_features=2, bias=True)
)
ActionNetwork(
  (fc): Linear(in_features=256, out_features=4, bias=True)
)
BaselineNetwork(
  (fc): Linear(in_features=256, out_features=1, bias=True)
)

[*] Train on 3600 samples, validate on 400 samples

Epoch: 1/500 - LR: 0.000300
train loss: 1.574 - train acc: 25.222 - val loss: 1.557 - val acc: 23.250 [*]

Epoch: 2/500 - LR: 0.000300
train loss: 1.565 - train acc: 24.778 - val loss: 1.558 - val acc: 23.500 [*]

Epoch: 3/500 - LR: 0.000300
train loss: 1.567 - train acc: 25.361 - val loss: 1.565 - val acc: 24.500 [*]
…
train loss: 0.983 - train acc: 69.778 - val loss: 2.551 - val acc: 27.000

Epoch: 92/500 - LR: 0.000003
train loss: 0.966 - train acc: 69.972 - val loss: 2.592 - val acc: 25.500

Epoch: 93/500 - LR: 0.000000
train loss: 0.963 - train acc: 71.111 - val loss: 2.597 - val acc: 27.250

Epoch: 94/500 - LR: 0.000000
train loss: 0.953 - train acc: 70.583 - val loss: 2.593 - val acc: 25.000

Epoch: 95/500 - LR: 0.000000
train loss: 0.980 - train acc: 69.583 - val loss: 2.600 - val acc: 26.250

Epoch: 96/500 - LR: 0.000000
train loss: 0.978 - train acc: 70.167 - val loss: 2.668 - val acc: 23.000

Epoch: 97/500 - LR: 0.000000
GlimpseNetwork(
  (fc1): Linear(in_features=128, out_features=128, bias=True)
  (fc2): Linear(in_features=128, out_features=256, bias=True)
  (loc_fc1): Linear(in_features=2, out_features=128, bias=True)
  (loc_fc2): Linear(in_features=128, out_features=256, bias=True)
)
CoreNetwork(
  (i2h): Linear(in_features=256, out_features=256, bias=True)
  (h2h): Linear(in_features=256, out_features=256, bias=True)
)
LocationNetwork(
  (fc): Linear(in_features=256, out_features=2, bias=True)
)
ActionNetwork(
  (fc): Linear(in_features=256, out_features=4, bias=True)
)
BaselineNetwork(
  (fc): Linear(in_features=256, out_features=1, bias=True)
)

[*] Train on 3600 samples, validate on 400 samples

Epoch: 1/500 - LR: 0.000300
GlimpseNetwork(
  (fc1): Linear(in_features=128, out_features=128, bias=True)
  (fc2): Linear(in_features=128, out_features=256, bias=True)
  (loc_fc1): Linear(in_features=2, out_features=128, bias=True)
  (loc_fc2): Linear(in_features=128, out_features=256, bias=True)
)
CoreNetwork(
  (i2h): Linear(in_features=256, out_features=256, bias=True)
  (h2h): Linear(in_features=256, out_features=256, bias=True)
)
LocationNetwork(
  (fc): Linear(in_features=256, out_features=2, bias=True)
)
ActionNetwork(
  (fc): Linear(in_features=256, out_features=4, bias=True)
)
BaselineNetwork(
  (fc): Linear(in_features=256, out_features=1, bias=True)
)

[*] Train on 3600 samples, validate on 400 samples

Epoch: 1/500 - LR: 0.000300
train loss: 1.583 - train acc: 24.611 - val loss: 1.552 - val acc: 21.500 [*]

Epoch: 2/500 - LR: 0.000300
train loss: 1.574 - train acc: 25.417 - val loss: 1.548 - val acc: 21.500

Epoch: 3/500 - LR: 0.000300
train loss: 1.568 - train acc: 25.556 - val loss: 1.547 - val acc: 21.500
…
train loss: 1.567 - train acc: 34.611 - val loss: 1.623 - val acc: 23.500

Epoch: 16/500 - LR: 0.000300
train loss: 1.563 - train acc: 36.444 - val loss: 1.681 - val acc: 22.500

Epoch: 17/500 - LR: 0.000300
train loss: 1.560 - train acc: 35.556 - val loss: 1.649 - val acc: 25.000

Epoch: 18/500 - LR: 0.000300
train loss: 1.550 - train acc: 36.750 - val loss: 1.680 - val acc: 24.500

Epoch: 19/500 - LR: 0.000300
train loss: 1.543 - train acc: 38.611 - val loss: 1.710 - val acc: 23.500

Epoch: 20/500 - LR: 0.000300
train loss: 1.533 - train acc: 40.000 - val loss: 1.734 - val acc: 19.500

Epoch: 21/500 - LR: 0.000300
GlimpseNetwork(
  (fc1): Linear(in_features=128, out_features=128, bias=True)
  (fc2): Linear(in_features=128, out_features=256, bias=True)
  (loc_fc1): Linear(in_features=2, out_features=128, bias=True)
  (loc_fc2): Linear(in_features=128, out_features=256, bias=True)
)
CoreNetwork(
  (i2h): Linear(in_features=256, out_features=256, bias=True)
  (h2h): Linear(in_features=256, out_features=256, bias=True)
)
LocationNetwork(
  (fc): Linear(in_features=256, out_features=2, bias=True)
)
ActionNetwork(
  (fc): Linear(in_features=256, out_features=4, bias=True)
)
BaselineNetwork(
  (fc): Linear(in_features=256, out_features=1, bias=True)
)

[*] Train on 3600 samples, validate on 400 samples

Epoch: 1/500 - LR: 0.000100
train loss: 1.567 - train acc: 24.139 - val loss: 1.561 - val acc: 23.500 [*]

Epoch: 2/500 - LR: 0.000100
train loss: 1.573 - train acc: 25.556 - val loss: 1.559 - val acc: 23.500

Epoch: 3/500 - LR: 0.000100
train loss: 1.561 - train acc: 23.917 - val loss: 1.558 - val acc: 23.500
…
train loss: 1.381 - train acc: 28.319 - action: 1.381, baseline: 0.335 reinforce: -6.881 - val loss: 1.388 - val acc: 25.750

Epoch: 9/500 - LR: 0.000100
train loss: 1.379 - train acc: 28.868 - action: 1.379, baseline: 0.345 reinforce: -7.068 - val loss: 1.389 - val acc: 25.562

Epoch: 10/500 - LR: 0.000100
train loss: 1.377 - train acc: 29.181 - action: 1.377, baseline: 0.350 reinforce: -7.143 - val loss: 1.395 - val acc: 25.688

Epoch: 11/500 - LR: 0.000100
train loss: 1.374 - train acc: 30.243 - action: 1.374, baseline: 0.360 reinforce: -7.306 - val loss: 1.396 - val acc: 24.938

Epoch: 12/500 - LR: 0.000100
GlimpseNetwork(
  (fc1): Linear(in_features=128, out_features=128, bias=True)
  (fc2): Linear(in_features=128, out_features=256, bias=True)
  (loc_fc1): Linear(in_features=2, out_features=128, bias=True)
  (loc_fc2): Linear(in_features=128, out_features=256, bias=True)
)
CoreNetwork(
  (i2h): Linear(in_features=256, out_features=256, bias=True)
  (h2h): Linear(in_features=256, out_features=256, bias=True)
)
LocationNetwork(
  (fc): Linear(in_features=256, out_features=2, bias=True)
)
ActionNetwork(
  (fc): Linear(in_features=256, out_features=4, bias=True)
)
BaselineNetwork(
  (fc): Linear(in_features=256, out_features=1, bias=True)
)
[*] Loading model from ./ckpt
/Users/KarakoA/Documents/Personal/RAM/VAM-2/src/ckpt/ram_6_8x8_8_model_best.pth.tar
[*] Loaded ram_6_8x8_8_model_best.pth.tar checkpoint @ epoch 79 with best valid acc of 92.438
GlimpseNetwork(
  (fc1): Linear(in_features=128, out_features=128, bias=True)
  (fc2): Linear(in_features=128, out_features=256, bias=True)
  (loc_fc1): Linear(in_features=2, out_features=128, bias=True)
  (loc_fc2): Linear(in_features=128, out_features=256, bias=True)
)
CoreNetwork(
  (i2h): Linear(in_features=256, out_features=256, bias=True)
  (h2h): Linear(in_features=256, out_features=256, bias=True)
)
LocationNetwork(
  (fc): Linear(in_features=256, out_features=2, bias=True)
)
ActionNetwork(
  (fc): Linear(in_features=256, out_features=4, bias=True)
)
BaselineNetwork(
  (fc): Linear(in_features=256, out_features=1, bias=True)
)

[*] Train on 14400 samples, validate on 1600 samples

Epoch: 1/500 - LR: 0.000100
GlimpseNetwork(
  (fc1): Linear(in_features=128, out_features=128, bias=True)
  (fc2): Linear(in_features=128, out_features=256, bias=True)
  (loc_fc1): Linear(in_features=2, out_features=128, bias=True)
  (loc_fc2): Linear(in_features=128, out_features=256, bias=True)
)
CoreNetwork(
  (i2h): Linear(in_features=256, out_features=256, bias=True)
  (h2h): Linear(in_features=256, out_features=256, bias=True)
)
LocationNetwork(
  (fc): Linear(in_features=256, out_features=2, bias=True)
)
ActionNetwork(
  (fc): Linear(in_features=256, out_features=4, bias=True)
)
BaselineNetwork(
  (fc): Linear(in_features=256, out_features=1, bias=True)
)

[*] Train on 14400 samples, validate on 1600 samples

Epoch: 1/500 - LR: 0.000100
GlimpseNetwork(
  (fc1): Linear(in_features=128, out_features=128, bias=True)
  (fc2): Linear(in_features=128, out_features=256, bias=True)
  (loc_fc1): Linear(in_features=2, out_features=128, bias=True)
  (loc_fc2): Linear(in_features=128, out_features=256, bias=True)
)
CoreNetwork(
  (i2h): Linear(in_features=256, out_features=256, bias=True)
  (h2h): Linear(in_features=256, out_features=256, bias=True)
)
LocationNetwork(
  (fc): Linear(in_features=256, out_features=2, bias=True)
)
ActionNetwork(
  (fc): Linear(in_features=256, out_features=4, bias=True)
)
BaselineNetwork(
  (fc): Linear(in_features=256, out_features=1, bias=True)
)

[*] Train on 14400 samples, validate on 1600 samples

Epoch: 1/500 - LR: 0.000100
train loss: -0.419 - train acc: 25.000 - action: 1.387, baseline: 0.208 reinforce: -2.013 - val loss: 0.537 - val acc: 24.062 [*]

Epoch: 2/500 - LR: 0.000100
GlimpseNetwork(
  (fc1): Linear(in_features=128, out_features=128, bias=True)
  (fc2): Linear(in_features=128, out_features=256, bias=True)
  (loc_fc1): Linear(in_features=2, out_features=128, bias=True)
  (loc_fc2): Linear(in_features=128, out_features=256, bias=True)
)
CoreNetwork(
  (i2h): Linear(in_features=256, out_features=256, bias=True)
  (h2h): Linear(in_features=256, out_features=256, bias=True)
)
LocationNetwork(
  (fc): Linear(in_features=256, out_features=2, bias=True)
)
ActionNetwork(
  (fc): Linear(in_features=256, out_features=4, bias=True)
)
BaselineNetwork(
  (fc): Linear(in_features=256, out_features=1, bias=True)
)

[*] Train on 14400 samples, validate on 1600 samples

Epoch: 1/500 - LR: 0.000100
GlimpseNetwork(
  (fc1): Linear(in_features=128, out_features=128, bias=True)
  (fc2): Linear(in_features=128, out_features=256, bias=True)
  (loc_fc1): Linear(in_features=2, out_features=128, bias=True)
  (loc_fc2): Linear(in_features=128, out_features=256, bias=True)
)
CoreNetwork(
  (i2h): Linear(in_features=256, out_features=256, bias=True)
  (h2h): Linear(in_features=256, out_features=256, bias=True)
)
LocationNetwork(
  (fc): Linear(in_features=256, out_features=2, bias=True)
)
ActionNetwork(
  (fc): Linear(in_features=256, out_features=4, bias=True)
)
BaselineNetwork(
  (fc): Linear(in_features=256, out_features=1, bias=True)
)

[*] Train on 14400 samples, validate on 1600 samples

Epoch: 1/500 - LR: 0.001000
train loss: 0.879 - train acc: 24.924 - action: 1.387, baseline: 0.196 reinforce: -0.704 - val loss: 2.241 - val acc: 25.938 [*]

Epoch: 2/500 - LR: 0.001000
train loss: 1.500 - train acc: 28.938 - action: 1.372, baseline: 0.206 reinforce: -0.078 - val loss: 0.673 - val acc: 29.688 [*]
…
