GlimpseNetwork(
  (conv1): Conv2d(2, 16, kernel_size=(3, 3), stride=(1, 1), padding=(1, 1))
  (conv2): Conv2d(16, 16, kernel_size=(3, 3), stride=(1, 1), padding=(1, 1))
  (bn1): BatchNorm2d(16, eps=1e-05, momentum=0.1, affine=True, track_running_stats=True)
  (max_pool1): MaxPool2d(kernel_size=3, stride=3, padding=1, dilation=1, ceil_mode=False)
  (conv3): Conv2d(16, 32, kernel_size=(3, 3), stride=(1, 1), padding=(1, 1))
  (max_pool2): MaxPool2d(kernel_size=3, stride=3, padding=1, dilation=1, ceil_mode=False)
  (fc1): Linear(in_features=32, out_features=128, bias=True)
  (fc2): Linear(in_features=128, out_features=256, bias=True)
  (bn2): BatchNorm1d(256, eps=1e-05, momentum=0.1, affine=True, track_running_stats=True)
  (loc_fc1): Linear(in_features=2, out_features=128, bias=True)
  (loc_fc2): Linear(in_features=128, out_features=256, bias=True)
)
CoreNetwork(
  (stacked_lstm): LSTM(256, 256, num_layers=2, batch_first=True)
)
LocationNetwork(
  (fc): Linear(in_features=256, out_features=128, bias=True)
  (fc_lt): Linear(in_features=128, out_features=2, bias=True)
)
ActionNetwork(
  (fc): Linear(in_features=256, out_features=4, bias=True)
)
BaselineNetwork(
  (fc): Linear(in_features=256, out_features=1, bias=True)
)

[*] Train on 3600 samples, validate on 400 samples

Epoch: 1/500 - LR: 0.000300
train loss: 1.571 - train acc: 25.306 - val loss: 1.547 - val acc: 23.000 [*]

Epoch: 2/500 - LR: 0.000300
GlimpseNetwork(
  (conv1): Conv2d(2, 16, kernel_size=(3, 3), stride=(1, 1), padding=(1, 1))
  (conv2): Conv2d(16, 16, kernel_size=(3, 3), stride=(1, 1), padding=(1, 1))
  (bn1): BatchNorm2d(16, eps=1e-05, momentum=0.1, affine=True, track_running_stats=True)
  (max_pool1): MaxPool2d(kernel_size=3, stride=3, padding=1, dilation=1, ceil_mode=False)
  (conv3): Conv2d(16, 32, kernel_size=(3, 3), stride=(1, 1), padding=(1, 1))
  (max_pool2): MaxPool2d(kernel_size=3, stride=3, padding=1, dilation=1, ceil_mode=False)
  (fc1): Linear(in_features=32, out_features=128, bias=True)
  (fc2): Linear(in_features=128, out_features=256, bias=True)
  (bn2): BatchNorm1d(256, eps=1e-05, momentum=0.1, affine=True, track_running_stats=True)
  (loc_fc1): Linear(in_features=2, out_features=128, bias=True)
  (loc_fc2): Linear(in_features=128, out_features=256, bias=True)
)
CoreNetwork(
  (stacked_lstm): LSTM(256, 256, num_layers=2, batch_first=True)
)
LocationNetwork(
  (fc): Linear(in_features=256, out_features=128, bias=True)
  (fc_lt): Linear(in_features=128, out_features=2, bias=True)
)
ActionNetwork(
  (fc): Linear(in_features=256, out_features=4, bias=True)
)
BaselineNetwork(
  (fc): Linear(in_features=256, out_features=1, bias=True)
)

[*] Train on 3600 samples, validate on 400 samples

Epoch: 1/500 - LR: 0.000300
train loss: 1.555 - train acc: 23.694 - val loss: 1.557 - val acc: 25.000 [*]

Epoch: 2/500 - LR: 0.000300
train loss: 1.554 - train acc: 25.139 - val loss: 1.571 - val acc: 28.500 [*]

Epoch: 3/500 - LR: 0.000300
train loss: 1.558 - train acc: 31.833 - val loss: 1.558 - val acc: 36.750 [*]
…
