GlimpseNetwork(
  (fc1): Linear(in_features=128, out_features=128, bias=True)
  (fc2): Linear(in_features=128, out_features=256, bias=True)
  (loc_fc1): Linear(in_features=2, out_features=128, bias=True)
  (loc_fc2): Linear(in_features=128, out_features=256, bias=True)
)
CoreNetwork(
  (i2h): Linear(in_features=256, out_features=256, bias=True)
  (h2h): Linear(in_features=256, out_features=256, bias=True)
)
LocationNetwork(
  (fc): Linear(in_features=256, out_features=128, bias=True)
  (fc_lt): Linear(in_features=128, out_features=2, bias=True)
)
ActionNetwork(
  (fc): Linear(in_features=256, out_features=4, bias=True)
)
BaselineNetwork(
  (fc): Linear(in_features=256, out_features=1, bias=True)
)

[*] Train on 3600 samples, validate on 400 samples

Epoch: 1/500 - LR: 0.000300
GlimpseNetwork(
  (fc1): Linear(in_features=128, out_features=128, bias=True)
  (fc2): Linear(in_features=128, out_features=256, bias=True)
  (loc_fc1): Linear(in_features=2, out_features=128, bias=True)
  (loc_fc2): Linear(in_features=128, out_features=256, bias=True)
)
CoreNetwork(
  (i2h): Linear(in_features=256, out_features=256, bias=True)
  (h2h): Linear(in_features=256, out_features=256, bias=True)
)
LocationNetwork(
  (fc): Linear(in_features=256, out_features=128, bias=True)
  (fc_lt): Linear(in_features=128, out_features=2, bias=True)
)
ActionNetwork(
  (fc): Linear(in_features=256, out_features=4, bias=True)
)
BaselineNetwork(
  (fc): Linear(in_features=256, out_features=1, bias=True)
)

[*] Train on 3600 samples, validate on 400 samples

Epoch: 1/500 - LR: 0.000300
GlimpseNetwork(
  (fc1): Linear(in_features=128, out_features=128, bias=True)
  (fc2): Linear(in_features=128, out_features=256, bias=True)
  (loc_fc1): Linear(in_features=2, out_features=128, bias=True)
  (loc_fc2): Linear(in_features=128, out_features=256, bias=True)
)
CoreNetwork(
  (i2h): Linear(in_features=256, out_features=256, bias=True)
  (h2h): Linear(in_features=256, out_features=256, bias=True)
)
LocationNetwork(
  (fc): Linear(in_features=256, out_features=128, bias=True)
  (fc_lt): Linear(in_features=128, out_features=2, bias=True)
)
ActionNetwork(
  (fc): Linear(in_features=256, out_features=4, bias=True)
)
BaselineNetwork(
  (fc): Linear(in_features=256, out_features=1, bias=True)
)

[*] Train on 3600 samples, validate on 400 samples

Epoch: 1/500 - LR: 0.000300
GlimpseNetwork(
  (fc1): Linear(in_features=128, out_features=128, bias=True)
  (fc2): Linear(in_features=128, out_features=256, bias=True)
  (loc_fc1): Linear(in_features=2, out_features=128, bias=True)
  (loc_fc2): Linear(in_features=128, out_features=256, bias=True)
)
CoreNetwork(
  (i2h): Linear(in_features=256, out_features=256, bias=True)
  (h2h): Linear(in_features=256, out_features=256, bias=True)
)
LocationNetwork(
  (fc): Linear(in_features=256, out_features=128, bias=True)
  (fc_lt): Linear(in_features=128, out_features=2, bias=True)
)
ActionNetwork(
  (fc): Linear(in_features=256, out_features=4, bias=True)
)
BaselineNetwork(
  (fc): Linear(in_features=256, out_features=1, bias=True)
)

[*] Train on 3600 samples, validate on 400 samples

Epoch: 1/500 - LR: 0.000300
GlimpseNetwork(
  (fc1): Linear(in_features=128, out_features=128, bias=True)
  (fc2): Linear(in_features=128, out_features=256, bias=True)
  (loc_fc1): Linear(in_features=2, out_features=128, bias=True)
  (loc_fc2): Linear(in_features=128, out_features=256, bias=True)
)
CoreNetwork(
  (i2h): Linear(in_features=256, out_features=256, bias=True)
  (h2h): Linear(in_features=256, out_features=256, bias=True)
)
LocationNetwork(
  (fc): Linear(in_features=256, out_features=128, bias=True)
  (fc_lt): Linear(in_features=128, out_features=2, bias=True)
)
ActionNetwork(
  (fc): Linear(in_features=256, out_features=4, bias=True)
)
BaselineNetwork(
  (fc): Linear(in_features=256, out_features=1, bias=True)
)

[*] Train on 3600 samples, validate on 400 samples

Epoch: 1/500 - LR: 0.000300
train loss: -0.057 - train acc: 24.583 - val loss: -0.077 - val acc: 22.750 [*]

Epoch: 2/500 - LR: 0.000300
train loss: -0.062 - train acc: 25.556 - val loss: -0.082 - val acc: 22.750

Epoch: 3/500 - LR: 0.000300
train loss: -0.069 - train acc: 25.306 - val loss: -0.081 - val acc: 22.750
…
train loss: -0.064 - train acc: 25.778 - val loss: -0.031 - val acc: 21.250

Epoch: 89/500 - LR: 0.000003
train loss: -0.061 - train acc: 25.278 - val loss: -0.047 - val acc: 23.000

Epoch: 90/500 - LR: 0.000003
train loss: -0.061 - train acc: 25.333 - val loss: -0.044 - val acc: 23.000

Epoch: 91/500 - LR: 0.000003
train loss: -0.062 - train acc: 25.333 - val loss: -0.041 - val acc: 23.000

Epoch: 92/500 - LR: 0.000003
train loss: -0.061 - train acc: 25.278 - val loss: -0.032 - val acc: 21.500

Epoch: 93/500 - LR: 0.000003
train loss: -0.060 - train acc: 25.278 - val loss: -0.040 - val acc: 22.750

Epoch: 94/500 - LR: 0.000003
GlimpseNetwork(
  (fc1): Linear(in_features=128, out_features=128, bias=True)
  (fc2): Linear(in_features=128, out_features=256, bias=True)
  (loc_fc1): Linear(in_features=2, out_features=128, bias=True)
  (loc_fc2): Linear(in_features=128, out_features=256, bias=True)
)
CoreNetwork(
  (i2h): Linear(in_features=256, out_features=256, bias=True)
  (h2h): Linear(in_features=256, out_features=256, bias=True)
)
LocationNetwork(
  (fc): Linear(in_features=256, out_features=128, bias=True)
  (fc_lt): Linear(in_features=128, out_features=2, bias=True)
)
ActionNetwork(
  (fc): Linear(in_features=256, out_features=4, bias=True)
)
BaselineNetwork(
  (fc): Linear(in_features=256, out_features=1, bias=True)
)

[*] Train on 3600 samples, validate on 400 samples

Epoch: 1/500 - LR: 0.000300
train loss: 1.574 - train acc: 25.222 - val loss: 1.557 - val acc: 23.250 [*]

Epoch: 2/500 - LR: 0.000300
train loss: 1.565 - train acc: 24.778 - val loss: 1.558 - val acc: 23.500 [*]

Epoch: 3/500 - LR: 0.000300
train loss: 1.567 - train acc: 25.361 - val loss: 1.565 - val acc: 24.500 [*]
…
train loss: 0.983 - train acc: 69.778 - val loss: 2.551 - val acc: 27.000

Epoch: 92/500 - LR: 0.000003
train loss: 0.966 - train acc: 69.972 - val loss: 2.592 - val acc: 25.500

Epoch: 93/500 - LR: 0.000000
train loss: 0.963 - train acc: 71.111 - val loss: 2.597 - val acc: 27.250

Epoch: 94/500 - LR: 0.000000
train loss: 0.953 - train acc: 70.583 - val loss: 2.593 - val acc: 25.000

Epoch: 95/500 - LR: 0.000000
train loss: 0.980 - train acc: 69.583 - val loss: 2.600 - val acc: 26.250

Epoch: 96/500 - LR: 0.000000
train loss: 0.978 - train acc: 70.167 - val loss: 2.668 - val acc: 23.000

Epoch: 97/500 - LR: 0.000000
GlimpseNetwork(
  (fc1): Linear(in_features=128, out_features=128, bias=True)
  (fc2): Linear(in_features=128, out_features=256, bias=True)
  (loc_fc1): Linear(in_features=2, out_features=128, bias=True)
  (loc_fc2): Linear(in_features=128, out_features=256, bias=True)
)
CoreNetwork(
  (i2h): Linear(in_features=256, out_features=256, bias=True)
  (h2h): Linear(in_features=256, out_features=256, bias=True)
)
LocationNetwork(
  (fc): Linear(in_features=256, out_features=2, bias=True)
)
ActionNetwork(
  (fc): Linear(in_features=256, out_features=4, bias=True)
)
BaselineNetwork(
  (fc): Linear(in_features=256, out_features=1, bias=True)
)

[*] Train on 3600 samples, validate on 400 samples

Epoch: 1/500 - LR: 0.000300
GlimpseNetwork(
  (fc1): Linear(in_features=128, out_features=128, bias=True)
  (fc2): Linear(in_features=128, out_features=256, bias=True)
  (loc_fc1): Linear(in_features=2, out_features=128, bias=True)
  (loc_fc2): Linear(in_features=128, out_features=256, bias=True)
)
CoreNetwork(
  (i2h): Linear(in_features=256, out_features=256, bias=True)
  (h2h): Linear(in_features=256, out_features=256, bias=True)
)
LocationNetwork(
  (fc): Linear(in_features=256, out_features=2, bias=True)
)
ActionNetwork(
  (fc): Linear(in_features=256, out_features=4, bias=True)
)
BaselineNetwork(
  (fc): Linear(in_features=256, out_features=1, bias=True)
)

[*] Train on 3600 samples, validate on 400 samples

Epoch: 1/500 - LR: 0.000300
train loss: 1.583 - train acc: 24.611 - val loss: 1.552 - val acc: 21.500 [*]

Epoch: 2/500 - LR: 0.000300
train loss: 1.574 - train acc: 25.417 - val loss: 1.548 - val acc: 21.500

Epoch: 3/500 - LR: 0.000300
train loss: 1.568 - train acc: 25.556 - val loss: 1.547 - val acc: 21.500
…
train loss: 1.567 - train acc: 34.611 - val loss: 1.623 - val acc: 23.500

Epoch: 16/500 - LR: 0.000300
train loss: 1.563 - train acc: 36.444 - val loss: 1.681 - val acc: 22.500

Epoch: 17/500 - LR: 0.000300
train loss: 1.560 - train acc: 35.556 - val loss: 1.649 - val acc: 25.000

Epoch: 18/500 - LR: 0.000300
train loss: 1.550 - train acc: 36.750 - val loss: 1.680 - val acc: 24.500

Epoch: 19/500 - LR: 0.000300
train loss: 1.543 - train acc: 38.611 - val loss: 1.710 - val acc: 23.500

Epoch: 20/500 - LR: 0.000300
train loss: 1.533 - train acc: 40.000 - val loss: 1.734 - val acc: 19.500

Epoch: 21/500 - LR: 0.000300
GlimpseNetwork(
  (fc1): Linear(in_features=128, out_features=128, bias=True)
  (fc2): Linear(in_features=128, out_features=256, bias=True)
  (loc_fc1): Linear(in_features=2, out_features=128, bias=True)
  (loc_fc2): Linear(in_features=128, out_features=256, bias=True)
)
CoreNetwork(
  (i2h): Linear(in_features=256, out_features=256, bias=True)
  (h2h): Linear(in_features=256, out_features=256, bias=True)
)
LocationNetwork(
  (fc): Linear(in_features=256, out_features=2, bias=True)
)
ActionNetwork(
  (fc): Linear(in_features=256, out_features=4, bias=True)
)
BaselineNetwork(
  (fc): Linear(in_features=256, out_features=1, bias=True)
)

[*] Train on 3600 samples, validate on 400 samples

Epoch: 1/500 - LR: 0.000100
train loss: 1.567 - train acc: 24.139 - val loss: 1.561 - val acc: 23.500 [*]

Epoch: 2/500 - LR: 0.000100
train loss: 1.573 - train acc: 25.556 - val loss: 1.559 - val acc: 23.500

Epoch: 3/500 - LR: 0.000100
train loss: 1.561 - train acc: 23.917 - val loss: 1.558 - val acc: 23.500
…
train loss: 1.381 - train acc: 28.319 - action: 1.381, baseline: 0.335 reinforce: -6.881 - val loss: 1.388 - val acc: 25.750

Epoch: 9/500 - LR: 0.000100
train loss: 1.379 - train acc: 28.868 - action: 1.379, baseline: 0.345 reinforce: -7.068 - val loss: 1.389 - val acc: 25.562

Epoch: 10/500 - LR: 0.000100
train loss: 1.377 - train acc: 29.181 - action: 1.377, baseline: 0.350 reinforce: -7.143 - val loss: 1.395 - val acc: 25.688

Epoch: 11/500 - LR: 0.000100
train loss: 1.374 - train acc: 30.243 - action: 1.374, baseline: 0.360 reinforce: -7.306 - val loss: 1.396 - val acc: 24.938

Epoch: 12/500 - LR: 0.000100
GlimpseNetwork(
  (fc1): Linear(in_features=128, out_features=128, bias=True)
  (fc2): Linear(in_features=128, out_features=256, bias=True)
  (loc_fc1): Linear(in_features=2, out_features=128, bias=True)
  (loc_fc2): Linear(in_features=128, out_features=256, bias=True)
)
CoreNetwork(
  (i2h): Linear(in_features=256, out_features=256, bias=True)
  (h2h): Linear(in_features=256, out_features=256, bias=True)
)
LocationNetwork(
  (fc): Linear(in_features=256, out_features=2, bias=True)
)
ActionNetwork(
  (fc): Linear(in_features=256, out_features=4, bias=True)
)
BaselineNetwork(
  (fc): Linear(in_features=256, out_features=1, bias=True)
)
[*] Loading model from ./ckpt
/Users/KarakoA/Documents/Personal/RAM/VAM-2/src/ckpt/ram_6_8x8_8_model_best.pth.tar
[*] Loaded ram_6_8x8_8_model_best.pth.tar checkpoint @ epoch 79 with best valid acc of 92.438
GlimpseNetwork(
  (fc1): Linear(in_features=128, out_features=128, bias=True)
  (fc2): Linear(in_features=128, out_features=256, bias=True)
  (loc_fc1): Linear(in_features=2, out_features=128, bias=True)
  (loc_fc2): Linear(in_features=128, out_features=256, bias=True)
)
CoreNetwork(
  (i2h): Linear(in_features=256, out_features=256, bias=True)
  (h2h): Linear(in_features=256, out_features=256, bias=True)
)
LocationNetwork(
  (fc): Linear(in_features=256, out_features=2, bias=True)
)
ActionNetwork(
  (fc): Linear(in_features=256, out_features=4, bias=True)
)
BaselineNetwork(
  (fc): Linear(in_features=256, out_features=1, bias=True)
)

[*] Train on 14400 samples, validate on 1600 samples

Epoch: 1/500 - LR: 0.000100
GlimpseNetwork(
  (fc1): Linear(in_features=128, out_features=128, bias=True)
  (fc2): Linear(in_features=128, out_features=256, bias=True)
  (loc_fc1): Linear(in_features=2, out_features=128, bias=True)
  (loc_fc2): Linear(in_features=128, out_features=256, bias=True)
)
CoreNetwork(
  (i2h): Linear(in_features=256, out_features=256, bias=True)
  (h2h): Linear(in_features=256, out_features=256, bias=True)
)
LocationNetwork(
  (fc): Linear(in_features=256, out_features=2, bias=True)
)
ActionNetwork(
  (fc): Linear(in_features=256, out_features=4, bias=True)
)
BaselineNetwork(
  (fc): Linear(in_features=256, out_features=1, bias=True)
)

[*] Train on 14400 samples, validate on 1600 samples

Epoch: 1/500 - LR: 0.000100
GlimpseNetwork(
  (fc1): Linear(in_features=128, out_features=128, bias=True)
  (fc2): Linear(in_features=128, out_features=256, bias=True)
  (loc_fc1): Linear(in_features=2, out_features=128, bias=True)
  (loc_fc2): Linear(in_features=128, out_features=256, bias=True)
)
CoreNetwork(
  (i2h): Linear(in_features=256, out_features=256, bias=True)
  (h2h): Linear(in_features=256, out_features=256, bias=True)
)
LocationNetwork(
  (fc): Linear(in_features=256, out_features=2, bias=True)
)
ActionNetwork(
  (fc): Linear(in_features=256, out_features=4, bias=True)
)
BaselineNetwork(
  (fc): Linear(in_features=256, out_features=1, bias=True)
)

[*] Train on 14400 samples, validate on 1600 samples

Epoch: 1/500 - LR: 0.000100
train loss: -0.419 - train acc: 25.000 - action: 1.387, baseline: 0.208 reinforce: -2.013 - val loss: 0.537 - val acc: 24.062 [*]

Epoch: 2/500 - LR: 0.000100
GlimpseNetwork(
  (fc1): Linear(in_features=128, out_features=128, bias=True)
  (fc2): Linear(in_features=128, out_features=256, bias=True)
  (loc_fc1): Linear(in_features=2, out_features=128, bias=True)
  (loc_fc2): Linear(in_features=128, out_features=256, bias=True)
)
CoreNetwork(
  (i2h): Linear(in_features=256, out_features=256, bias=True)
  (h2h): Linear(in_features=256, out_features=256, bias=True)
)
LocationNetwork(
  (fc): Linear(in_features=256, out_features=2, bias=True)
)
ActionNetwork(
  (fc): Linear(in_features=256, out_features=4, bias=True)
)
BaselineNetwork(
  (fc): Linear(in_features=256, out_features=1, bias=True)
)

[*] Train on 14400 samples, validate on 1600 samples

Epoch: 1/500 - LR: 0.000100
GlimpseNetwork(
  (fc1): Linear(in_features=128, out_features=128, bias=True)
  (fc2): Linear(in_features=128, out_features=256, bias=True)
  (loc_fc1): Linear(in_features=2, out_features=128, bias=True)
  (loc_fc2): Linear(in_features=128, out_features=256, bias=True)
)
CoreNetwork(
  (i2h): Linear(in_features=256, out_features=256, bias=True)
  (h2h): Linear(in_features=256, out_features=256, bias=True)
)
LocationNetwork(
  (fc): Linear(in_features=256, out_features=2, bias=True)
)
ActionNetwork(
  (fc): Linear(in_features=256, out_features=4, bias=True)
)
BaselineNetwork(
  (fc): Linear(in_features=256, out_features=1, bias=True)
)

[*] Train on 14400 samples, validate on 1600 samples

Epoch: 1/500 - LR: 0.001000
train loss: 0.879 - train acc: 24.924 - action: 1.387, baseline: 0.196 reinforce: -0.704 - val loss: 2.241 - val acc: 25.938 [*]

Epoch: 2/500 - LR: 0.001000
train loss: 1.500 - train acc: 28.938 - action: 1.372, baseline: 0.206 reinforce: -0.078 - val loss: 0.673 - val acc: 29.688 [*]
…
train loss: 0.007 - train acc: 99.764 - action: 0.006, baseline: 0.002 reinforce: -0.001 - val loss: 0.207 - val acc: 98.625

Epoch: 380/1000 - LR: 0.000010
train loss: 0.006 - train acc: 99.806 - action: 0.005, baseline: 0.002 reinforce: -0.001 - val loss: 0.166 - val acc: 98.812

Epoch: 381/1000 - LR: 0.000010
train loss: 0.009 - train acc: 99.778 - action: 0.005, baseline: 0.002 reinforce: 0.001 - val loss: 0.202 - val acc: 98.688

Epoch: 382/1000 - LR: 0.000010
train loss: 0.007 - train acc: 99.771 - action: 0.006, baseline: 0.002 reinforce: -0.002 - val loss: 0.176 - val acc: 98.812
[!] No improvement in a while, stopping training.
GlimpseNetwork(
  (fc1): Linear(in_features=128, out_features=128, bias=True)
  (fc2): Linear(in_features=128, out_features=256, bias=True)
  (loc_fc1): Linear(in_features=2, out_features=128, bias=True)
  (loc_fc2): Linear(in_features=128, out_features=256, bias=True)
)
CoreNetwork(
  (i2h): Linear(in_features=256, out_features=256, bias=True)
  (h2h): Linear(in_features=256, out_features=256, bias=True)
)
LocationNetwork(
  (fc): Linear(in_features=256, out_features=2, bias=True)
)
ActionNetwork(
  (fc): Linear(in_features=256, out_features=4, bias=True)
)
BaselineNetwork(
  (fc): Linear(in_features=256, out_features=1, bias=True)
)
[*] Loading model from ./ckpt
/Users/KarakoA/Documents/Personal/RAM/VAM-2/src/ckpt/ram_6_8x8_8_model_best.pth.tar
[*] Loaded ram_6_8x8_8_model_best.pth.tar checkpoint @ epoch 281 with best valid acc of 99.500
[*] Test Acc: 1556/1600 (97.25% - 2.75%)
GlimpseNetwork(
  (fc1): Linear(in_features=128, out_features=128, bias=True)
  (fc2): Linear(in_features=128, out_features=256, bias=True)
  (loc_fc1): Linear(in_features=2, out_features=128, bias=True)
  (loc_fc2): Linear(in_features=128, out_features=256, bias=True)
)
CoreNetwork(
  (i2h): Linear(in_features=256, out_features=256, bias=True)
  (h2h): Linear(in_features=256, out_features=256, bias=True)
)
LocationNetwork(
  (fc): Linear(in_features=256, out_features=2, bias=True)
)
ActionNetwork(
  (fc): Linear(in_features=256, out_features=4, bias=True)
)
BaselineNetwork(
  (fc): Linear(in_features=256, out_features=1, bias=True)
)
[*] Loading model from ./ckpt
/Users/KarakoA/Documents/Personal/RAM/VAM-2/src/ckpt/ram_6_8x8_8_model_best.pth.tar
[*] Loaded ram_6_8x8_8_model_best.pth.tar checkpoint @ epoch 281 with best valid acc of 99.500
[*] Test Acc: 1556/1600 (97.25% - 2.75%)
GlimpseNetwork(
  (fc1): Linear(in_features=128, out_features=128, bias=True)
  (fc2): Linear(in_features=128, out_features=256, bias=True)
  (loc_fc1): Linear(in_features=2, out_features=128, bias=True)
  (loc_fc2): Linear(in_features=128, out_features=256, bias=True)
)
CoreNetwork(
  (i2h): Linear(in_features=256, out_features=256, bias=True)
  (h2h): Linear(in_features=256, out_features=256, bias=True)
)
LocationNetwork(
  (fc): Linear(in_features=256, out_features=2, bias=True)
)
ActionNetwork(
  (fc): Linear(in_features=256, out_features=4, bias=True)
)
BaselineNetwork(
  (fc): Linear(in_features=256, out_features=1, bias=True)
)
[*] Loading model from ./ckpt
/Users/KarakoA/Documents/Personal/RAM/VAM-2/src/ckpt/ram_6_8x8_8_model_best.pth.tar
[*] Loaded ram_6_8x8_8_model_best.pth.tar checkpoint @ epoch 281 with best valid acc of 99.500
[*] Test Acc: 1479/1600 (92.44% - 7.56%)
GlimpseNetwork(
  (fc1): Linear(in_features=128, out_features=128, bias=True)
  (fc2): Linear(in_features=128, out_features=256, bias=True)
  (loc_fc1): Linear(in_features=2, out_features=128, bias=True)
  (loc_fc2): Linear(in_features=128, out_features=256, bias=True)
)
CoreNetwork(
  (i2h): Linear(in_features=256, out_features=256, bias=True)
  (h2h): Linear(in_features=256, out_features=256, bias=True)
)
LocationNetwork(
  (fc): Linear(in_features=256, out_features=2, bias=True)
)
ActionNetwork(
  (fc): Linear(in_features=256, out_features=4, bias=True)
)
BaselineNetwork(
  (fc): Linear(in_features=256, out_features=1, bias=True)
)

[*] Train on 14400 samples, validate on 1600 samples

Epoch: 1/1000 - LR: 0.001000
train loss: 1.387 - train acc: 24.833 - action: 1.387, baseline: 0.248 reinforce: -2.792 - val loss: 1.386 - val acc: 25.750 [*]

Epoch: 2/1000 - LR: 0.001000
train loss: 1.387 - train acc: 24.792 - action: 1.387, baseline: 0.248 reinforce: -2.882 - val loss: 1.386 - val acc: 24.562
…
train loss: 1.382 - train acc: 27.347 - action: 1.382, baseline: 0.273 reinforce: -3.381 - val loss: 1.387 - val acc: 26.188 [*]

Epoch: 13/1000 - LR: 0.001000
train loss: 1.376 - train acc: 29.007 - action: 1.376, baseline: 0.290 reinforce: -3.609 - val loss: 1.380 - val acc: 29.750 [*]

Epoch: 14/1000 - LR: 0.001000
train loss: 0.978 - train acc: 54.410 - action: 0.978, baseline: 0.539 reinforce: -5.450 - val loss: 0.450 - val acc: 80.062 [*]

Epoch: 15/1000 - LR: 0.001000
train loss: 0.402 - train acc: 82.431 - action: 0.402, baseline: 0.805 reinforce: -4.808 - val loss: 0.330 - val acc: 84.375 [*]

Epoch: 16/1000 - LR: 0.001000
GlimpseNetwork(
  (fc1): Linear(in_features=128, out_features=128, bias=True)
  (fc2): Linear(in_features=128, out_features=256, bias=True)
  (loc_fc1): Linear(in_features=2, out_features=128, bias=True)
  (loc_fc2): Linear(in_features=128, out_features=256, bias=True)
)
CoreNetwork(
  (stacked_lstm): LSTM(256, 256, batch_first=True)
)
LocationNetwork(
  (fc): Linear(in_features=256, out_features=2, bias=True)
)
ActionNetwork(
  (fc): Linear(in_features=256, out_features=4, bias=True)
)
BaselineNetwork(
  (fc): Linear(in_features=256, out_features=1, bias=True)
)

[*] Train on 14400 samples, validate on 1600 samples

Epoch: 1/1000 - LR: 0.001000
train loss: 1.387 - train acc: 25.035 - action: 1.387, baseline: 0.250 reinforce: -3.008 - val loss: 1.389 - val acc: 25.250 [*]

Epoch: 2/1000 - LR: 0.001000
train loss: 1.387 - train acc: 24.833 - action: 1.387, baseline: 0.248 reinforce: -2.977 - val loss: 1.387 - val acc: 23.500
…
train loss: -0.575 - train acc: 99.021 - action: 0.028, baseline: 0.010 reinforce: -0.612 - val loss: -40.267 - val acc: 86.312

Epoch: 106/1000 - LR: 0.000100
train loss: -0.450 - train acc: 98.965 - action: 0.030, baseline: 0.010 reinforce: -0.490 - val loss: -40.448 - val acc: 85.875

Epoch: 107/1000 - LR: 0.000100
train loss: -0.398 - train acc: 98.986 - action: 0.027, baseline: 0.010 reinforce: -0.435 - val loss: -40.199 - val acc: 86.188

Epoch: 108/1000 - LR: 0.000100
train loss: -0.205 - train acc: 99.153 - action: 0.025, baseline: 0.009 reinforce: -0.239 - val loss: -43.126 - val acc: 85.688
[!] No improvement in a while, stopping training.
GlimpseNetwork(
  (fc1): Linear(in_features=128, out_features=128, bias=True)
  (fc2): Linear(in_features=128, out_features=256, bias=True)
  (loc_fc1): Linear(in_features=2, out_features=128, bias=True)
  (loc_fc2): Linear(in_features=128, out_features=256, bias=True)
)
CoreNetwork(
  (stacked_lstm): LSTM(256, 256, batch_first=True)
)
LocationNetwork(
  (fc): Linear(in_features=256, out_features=2, bias=True)
)
ActionNetwork(
  (fc): Linear(in_features=256, out_features=4, bias=True)
)
BaselineNetwork(
  (fc): Linear(in_features=256, out_features=1, bias=True)
)

[*] Train on 14400 samples, validate on 1600 samples

Epoch: 1/1000 - LR: 0.001000
GlimpseNetwork(
  (fc1): Linear(in_features=128, out_features=128, bias=True)
  (fc2): Linear(in_features=128, out_features=256, bias=True)
  (loc_fc1): Linear(in_features=2, out_features=128, bias=True)
  (loc_fc2): Linear(in_features=128, out_features=256, bias=True)
)
CoreNetwork(
  (stacked_lstm): LSTM(256, 256, batch_first=True)
)
LocationNetwork(
  (fc): Linear(in_features=256, out_features=2, bias=True)
)
ActionNetwork(
  (fc): Linear(in_features=256, out_features=4, bias=True)
)
BaselineNetwork(
  (fc): Linear(in_features=256, out_features=1, bias=True)
)

[*] Train on 3600 samples, validate on 400 samples

Epoch: 1/1000 - LR: 0.001000
train loss: 0.357 - train acc: 23.667 - action: 1.388, baseline: 0.196 reinforce: -1.227 - val loss: 1.141 - val acc: 24.750 [*]

Epoch: 2/1000 - LR: 0.001000
train loss: 1.364 - train acc: 23.028 - action: 1.387, baseline: 0.178 reinforce: -0.201 - val loss: 1.244 - val acc: 24.250
…
train loss: 0.520 - train acc: 77.944 - action: 0.616, baseline: 0.173 reinforce: -0.269 - val loss: -0.569 - val acc: 86.500 [*]

Epoch: 14/1000 - LR: 0.001000
train loss: 0.442 - train acc: 82.000 - action: 0.528, baseline: 0.150 reinforce: -0.236 - val loss: 0.072 - val acc: 86.000

Epoch: 15/1000 - LR: 0.001000
train loss: 0.558 - train acc: 82.556 - action: 0.505, baseline: 0.145 reinforce: -0.092 - val loss: -0.655 - val acc: 88.250 [*]

Epoch: 16/1000 - LR: 0.001000
train loss: 0.409 - train acc: 85.722 - action: 0.450, baseline: 0.123 reinforce: -0.165 - val loss: -0.182 - val acc: 87.750

Epoch: 17/1000 - LR: 0.001000
GlimpseNetwork(
  (conv1): Conv2d(2, 16, kernel_size=(3, 3), stride=(1, 1), padding=(1, 1))
  (conv2): Conv2d(16, 16, kernel_size=(3, 3), stride=(1, 1), padding=(1, 1))
  (bn1): BatchNorm2d(16, eps=1e-05, momentum=0.1, affine=True, track_running_stats=True)
  (max_pool1): MaxPool2d(kernel_size=3, stride=3, padding=1, dilation=1, ceil_mode=False)
  (conv3): Conv2d(16, 32, kernel_size=(3, 3), stride=(1, 1), padding=(1, 1))
  (max_pool2): MaxPool2d(kernel_size=3, stride=3, padding=1, dilation=1, ceil_mode=False)
  (fc1): Linear(in_features=32, out_features=128, bias=True)
  (fc2): Linear(in_features=128, out_features=256, bias=True)
  (bn2): BatchNorm1d(256, eps=1e-05, momentum=0.1, affine=True, track_running_stats=True)
  (loc_fc1): Linear(in_features=2, out_features=128, bias=True)
  (loc_fc2): Linear(in_features=128, out_features=256, bias=True)
)
CoreNetwork(
  (stacked_lstm): LSTM(256, 256, batch_first=True)
)
LocationNetwork(
  (fc): Linear(in_features=256, out_features=2, bias=True)
)
ActionNetwork(
  (fc): Linear(in_features=256, out_features=4, bias=True)
)
BaselineNetwork(
  (fc): Linear(in_features=256, out_features=1, bias=True)
)

[*] Train on 3600 samples, validate on 400 samples

Epoch: 1/1000 - LR: 0.001000
train loss: 0.956 - train acc: 25.194 - action: 1.388, baseline: 0.197 reinforce: -0.629 - val loss: 1.362 - val acc: 27.000 [*]

Epoch: 2/1000 - LR: 0.001000
train loss: 1.162 - train acc: 34.389 - action: 1.326, baseline: 0.227 reinforce: -0.390 - val loss: 4.745 - val acc: 29.000 [*]
…
train loss: 0.541 - train acc: 82.535 - action: 0.416, baseline: 0.140 reinforce: -0.015 - val loss: 4.767 - val acc: 57.938

Epoch: 172/1000 - LR: 0.001000
train loss: 0.533 - train acc: 82.306 - action: 0.412, baseline: 0.142 reinforce: -0.021 - val loss: 4.289 - val acc: 59.375

Epoch: 173/1000 - LR: 0.001000
train loss: 0.522 - train acc: 83.271 - action: 0.394, baseline: 0.136 reinforce: -0.007 - val loss: 4.657 - val acc: 60.125

Epoch: 174/1000 - LR: 0.001000
train loss: 0.491 - train acc: 84.340 - action: 0.377, baseline: 0.129 reinforce: -0.014 - val loss: 3.760 - val acc: 62.500

Epoch: 175/1000 - LR: 0.001000
GlimpseNetwork(
  (conv1): Conv2d(2, 16, kernel_size=(3, 3), stride=(1, 1), padding=(1, 1))
  (conv2): Conv2d(16, 16, kernel_size=(3, 3), stride=(1, 1), padding=(1, 1))
  (bn1): BatchNorm2d(16, eps=1e-05, momentum=0.1, affine=True, track_running_stats=True)
  (max_pool1): MaxPool2d(kernel_size=3, stride=3, padding=1, dilation=1, ceil_mode=False)
  (conv3): Conv2d(16, 32, kernel_size=(3, 3), stride=(1, 1), padding=(1, 1))
  (max_pool2): MaxPool2d(kernel_size=3, stride=3, padding=1, dilation=1, ceil_mode=False)
  (fc1): Linear(in_features=32, out_features=128, bias=True)
  (fc2): Linear(in_features=128, out_features=256, bias=True)
  (bn2): BatchNorm1d(256, eps=1e-05, momentum=0.1, affine=True, track_running_stats=True)
  (loc_fc1): Linear(in_features=2, out_features=128, bias=True)
  (loc_fc2): Linear(in_features=128, out_features=256, bias=True)
)
CoreNetwork(
  (stacked_lstm): LSTM(256, 256, batch_first=True)
)
LocationNetwork(
  (fc): Linear(in_features=256, out_features=2, bias=True)
)
ActionNetwork(
  (fc): Linear(in_features=256, out_features=4, bias=True)
)
BaselineNetwork(
  (fc): Linear(in_features=256, out_features=1, bias=True)
)
[*] Loading model from ./ckpt
/Users/KarakoA/Documents/Personal/RAM/VAM-2/src/ckpt/ram_6_8x8_8_ckpt.pth.tar
[*] Loaded ram_6_8x8_8_ckpt.pth.tar checkpoint @ epoch 174

[*] Train on 14400 samples, validate on 1600 samples

Epoch: 175/1000 - LR: 0.001000
GlimpseNetwork(
  (conv1): Conv2d(2, 16, kernel_size=(3, 3), stride=(1, 1), padding=(1, 1))
  (conv2): Conv2d(16, 16, kernel_size=(3, 3), stride=(1, 1), padding=(1, 1))
  (bn1): BatchNorm2d(16, eps=1e-05, momentum=0.1, affine=True, track_running_stats=True)
  (max_pool1): MaxPool2d(kernel_size=3, stride=3, padding=1, dilation=1, ceil_mode=False)
  (conv3): Conv2d(16, 32, kernel_size=(3, 3), stride=(1, 1), padding=(1, 1))
  (max_pool2): MaxPool2d(kernel_size=3, stride=3, padding=1, dilation=1, ceil_mode=False)
  (fc1): Linear(in_features=32, out_features=128, bias=True)
  (fc2): Linear(in_features=128, out_features=256, bias=True)
  (bn2): BatchNorm1d(256, eps=1e-05, momentum=0.1, affine=True, track_running_stats=True)
  (loc_fc1): Linear(in_features=2, out_features=128, bias=True)
  (loc_fc2): Linear(in_features=128, out_features=256, bias=True)
)
CoreNetwork(
  (stacked_lstm): LSTM(256, 256, batch_first=True)
)
LocationNetwork(
  (fc): Linear(in_features=256, out_features=2, bias=True)
)
ActionNetwork(
  (fc): Linear(in_features=256, out_features=4, bias=True)
)
BaselineNetwork(
  (fc): Linear(in_features=256, out_features=1, bias=True)
)
[*] Loading model from ./ckpt
/Users/KarakoA/Documents/Personal/RAM/VAM-2/src/ckpt/ram_6_8x8_8_ckpt.pth.tar
[*] Loaded ram_6_8x8_8_ckpt.pth.tar checkpoint @ epoch 174

[*] Train on 14400 samples, validate on 1600 samples

Epoch: 175/1000 - LR: 0.001000
GlimpseNetwork(
  (conv1): Conv2d(2, 16, kernel_size=(3, 3), stride=(1, 1), padding=(1, 1))
  (conv2): Conv2d(16, 16, kernel_size=(3, 3), stride=(1, 1), padding=(1, 1))
  (bn1): BatchNorm2d(16, eps=1e-05, momentum=0.1, affine=True, track_running_stats=True)
  (max_pool1): MaxPool2d(kernel_size=3, stride=3, padding=1, dilation=1, ceil_mode=False)
  (conv3): Conv2d(16, 32, kernel_size=(3, 3), stride=(1, 1), padding=(1, 1))
  (max_pool2): MaxPool2d(kernel_size=3, stride=3, padding=1, dilation=1, ceil_mode=False)
  (fc1): Linear(in_features=32, out_features=128, bias=True)
  (fc2): Linear(in_features=128, out_features=256, bias=True)
  (bn2): BatchNorm1d(256, eps=1e-05, momentum=0.1, affine=True, track_running_stats=True)
  (loc_fc1): Linear(in_features=2, out_features=128, bias=True)
  (loc_fc2): Linear(in_features=128, out_features=256, bias=True)
)
CoreNetwork(
  (stacked_lstm): LSTM(256, 256, batch_first=True)
)
LocationNetwork(
  (fc): Linear(in_features=256, out_features=2, bias=True)
)
ActionNetwork(
  (fc): Linear(in_features=256, out_features=4, bias=True)
)
BaselineNetwork(
  (fc): Linear(in_features=256, out_features=1, bias=True)
)
[*] Loading model from ./ckpt
/Users/KarakoA/Documents/Personal/RAM/VAM-2/src/ckpt/ram_6_8x8_8_ckpt.pth.tar
[*] Loaded ram_6_8x8_8_ckpt.pth.tar checkpoint @ epoch 174

[*] Train on 14400 samples, validate on 1600 samples

Epoch: 175/1000 - LR: 0.001000
GlimpseNetwork(
  (conv1): Conv2d(2, 16, kernel_size=(3, 3), stride=(1, 1), padding=(1, 1))
  (conv2): Conv2d(16, 16, kernel_size=(3, 3), stride=(1, 1), padding=(1, 1))
  (bn1): BatchNorm2d(16, eps=1e-05, momentum=0.1, affine=True, track_running_stats=True)
  (max_pool1): MaxPool2d(kernel_size=3, stride=3, padding=1, dilation=1, ceil_mode=False)
  (conv3): Conv2d(16, 32, kernel_size=(3, 3), stride=(1, 1), padding=(1, 1))
  (max_pool2): MaxPool2d(kernel_size=3, stride=3, padding=1, dilation=1, ceil_mode=False)
  (fc1): Linear(in_features=32, out_features=128, bias=True)
  (fc2): Linear(in_features=128, out_features=256, bias=True)
  (bn2): BatchNorm1d(256, eps=1e-05, momentum=0.1, affine=True, track_running_stats=True)
  (loc_fc1): Linear(in_features=2, out_features=128, bias=True)
  (loc_fc2): Linear(in_features=128, out_features=256, bias=True)
)
CoreNetwork(
  (stacked_lstm): LSTM(256, 256, batch_first=True)
)
LocationNetwork(
  (fc): Linear(in_features=256, out_features=2, bias=True)
)
ActionNetwork(
  (fc): Linear(in_features=256, out_features=4, bias=True)
)
BaselineNetwork(
  (fc): Linear(in_features=256, out_features=1, bias=True)
)
[*] Loading model from ./ckpt
/Users/KarakoA/Documents/Personal/RAM/VAM-2/src/ckpt/ram_6_8x8_8_ckpt.pth.tar
[*] Loaded ram_6_8x8_8_ckpt.pth.tar checkpoint @ epoch 174

[*] Train on 14400 samples, validate on 1600 samples

Epoch: 175/1000 - LR: 0.001000
GlimpseNetwork(
  (conv1): Conv2d(2, 16, kernel_size=(3, 3), stride=(1, 1), padding=(1, 1))
  (conv2): Conv2d(16, 16, kernel_size=(3, 3), stride=(1, 1), padding=(1, 1))
  (bn1): BatchNorm2d(16, eps=1e-05, momentum=0.1, affine=True, track_running_stats=True)
  (max_pool1): MaxPool2d(kernel_size=3, stride=3, padding=1, dilation=1, ceil_mode=False)
  (conv3): Conv2d(16, 32, kernel_size=(3, 3), stride=(1, 1), padding=(1, 1))
  (max_pool2): MaxPool2d(kernel_size=3, stride=3, padding=1, dilation=1, ceil_mode=False)
  (fc1): Linear(in_features=32, out_features=128, bias=True)
  (fc2): Linear(in_features=128, out_features=256, bias=True)
  (bn2): BatchNorm1d(256, eps=1e-05, momentum=0.1, affine=True, track_running_stats=True)
  (loc_fc1): Linear(in_features=2, out_features=128, bias=True)
  (loc_fc2): Linear(in_features=128, out_features=256, bias=True)
)
CoreNetwork(
  (stacked_lstm): LSTM(256, 256, batch_first=True)
)
LocationNetwork(
  (fc): Linear(in_features=256, out_features=2, bias=True)
)
ActionNetwork(
  (fc): Linear(in_features=256, out_features=4, bias=True)
)
BaselineNetwork(
  (fc): Linear(in_features=256, out_features=1, bias=True)
)
[*] Loading model from ./ckpt
/Users/KarakoA/Documents/Personal/RAM/VAM-2/src/ckpt/ram_6_8x8_8_ckpt.pth.tar
[*] Loaded ram_6_8x8_8_ckpt.pth.tar checkpoint @ epoch 174

[*] Train on 14400 samples, validate on 1600 samples

Epoch: 175/1000 - LR: 0.001000
GlimpseNetwork(
  (conv1): Conv2d(2, 16, kernel_size=(3, 3), stride=(1, 1), padding=(1, 1))
  (conv2): Conv2d(16, 16, kernel_size=(3, 3), stride=(1, 1), padding=(1, 1))
  (bn1): BatchNorm2d(16, eps=1e-05, momentum=0.1, affine=True, track_running_stats=True)
  (max_pool1): MaxPool2d(kernel_size=3, stride=3, padding=1, dilation=1, ceil_mode=False)
  (conv3): Conv2d(16, 32, kernel_size=(3, 3), stride=(1, 1), padding=(1, 1))
  (max_pool2): MaxPool2d(kernel_size=3, stride=3, padding=1, dilation=1, ceil_mode=False)
  (fc1): Linear(in_features=32, out_features=128, bias=True)
  (fc2): Linear(in_features=128, out_features=256, bias=True)
  (bn2): BatchNorm1d(256, eps=1e-05, momentum=0.1, affine=True, track_running_stats=True)
  (loc_fc1): Linear(in_features=2, out_features=128, bias=True)
  (loc_fc2): Linear(in_features=128, out_features=256, bias=True)
)
CoreNetwork(
  (stacked_lstm): LSTM(256, 256, batch_first=True)
)
LocationNetwork(
  (fc): Linear(in_features=256, out_features=2, bias=True)
)
ActionNetwork(
  (fc): Linear(in_features=256, out_features=4, bias=True)
)
BaselineNetwork(
  (fc): Linear(in_features=256, out_features=1, bias=True)
)
[*] Loading model from ./ckpt
/Users/KarakoA/Documents/Personal/RAM/VAM-2/src/ckpt/ram_6_8x8_8_ckpt.pth.tar
[*] Loaded ram_6_8x8_8_ckpt.pth.tar checkpoint @ epoch 174

[*] Train on 14400 samples, validate on 1600 samples

Epoch: 175/1000 - LR: 0.001000
GlimpseNetwork(
  (conv1): Conv2d(2, 16, kernel_size=(3, 3), stride=(1, 1), padding=(1, 1))
  (conv2): Conv2d(16, 16, kernel_size=(3, 3), stride=(1, 1), padding=(1, 1))
  (bn1): BatchNorm2d(16, eps=1e-05, momentum=0.1, affine=True, track_running_stats=True)
  (max_pool1): MaxPool2d(kernel_size=3, stride=3, padding=1, dilation=1, ceil_mode=False)
  (conv3): Conv2d(16, 32, kernel_size=(3, 3), stride=(1, 1), padding=(1, 1))
  (max_pool2): MaxPool2d(kernel_size=3, stride=3, padding=1, dilation=1, ceil_mode=False)
  (fc1): Linear(in_features=32, out_features=128, bias=True)
  (fc2): Linear(in_features=128, out_features=256, bias=True)
  (bn2): BatchNorm1d(256, eps=1e-05, momentum=0.1, affine=True, track_running_stats=True)
  (loc_fc1): Linear(in_features=2, out_features=128, bias=True)
  (loc_fc2): Linear(in_features=128, out_features=256, bias=True)
)
CoreNetwork(
  (stacked_lstm): LSTM(256, 256, batch_first=True)
)
LocationNetwork(
  (fc): Linear(in_features=256, out_features=2, bias=True)
)
ActionNetwork(
  (fc): Linear(in_features=256, out_features=4, bias=True)
)
BaselineNetwork(
  (fc): Linear(in_features=256, out_features=1, bias=True)
)
[*] Loading model from ./ckpt
/Users/KarakoA/Documents/Personal/RAM/VAM-2/src/ckpt/ram_6_8x8_8_ckpt.pth.tar
[*] Loaded ram_6_8x8_8_ckpt.pth.tar checkpoint @ epoch 174

[*] Train on 14400 samples, validate on 1600 samples

Epoch: 175/1000 - LR: 0.001000
GlimpseNetwork(
  (conv1): Conv2d(2, 16, kernel_size=(3, 3), stride=(1, 1), padding=(1, 1))
  (conv2): Conv2d(16, 16, kernel_size=(3, 3), stride=(1, 1), padding=(1, 1))
  (bn1): BatchNorm2d(16, eps=1e-05, momentum=0.1, affine=True, track_running_stats=True)
  (max_pool1): MaxPool2d(kernel_size=3, stride=3, padding=1, dilation=1, ceil_mode=False)
  (conv3): Conv2d(16, 32, kernel_size=(3, 3), stride=(1, 1), padding=(1, 1))
  (max_pool2): MaxPool2d(kernel_size=3, stride=3, padding=1, dilation=1, ceil_mode=False)
  (fc1): Linear(in_features=32, out_features=128, bias=True)
  (fc2): Linear(in_features=128, out_features=256, bias=True)
  (bn2): BatchNorm1d(256, eps=1e-05, momentum=0.1, affine=True, track_running_stats=True)
  (loc_fc1): Linear(in_features=2, out_features=128, bias=True)
  (loc_fc2): Linear(in_features=128, out_features=256, bias=True)
)
CoreNetwork(
  (stacked_lstm): LSTM(256, 256, batch_first=True)
)
LocationNetwork(
  (fc): Linear(in_features=256, out_features=2, bias=True)
)
ActionNetwork(
  (fc): Linear(in_features=256, out_features=4, bias=True)
)
BaselineNetwork(
  (fc): Linear(in_features=256, out_features=1, bias=True)
)
[*] Loading model from ./ckpt
/Users/KarakoA/Documents/Personal/RAM/VAM-2/src/ckpt/ram_6_8x8_8_ckpt.pth.tar
[*] Loaded ram_6_8x8_8_ckpt.pth.tar checkpoint @ epoch 174

[*] Train on 14400 samples, validate on 1600 samples

Epoch: 175/1000 - LR: 0.001000
GlimpseNetwork(
  (conv1): Conv2d(2, 16, kernel_size=(3, 3), stride=(1, 1), padding=(1, 1))
  (conv2): Conv2d(16, 16, kernel_size=(3, 3), stride=(1, 1), padding=(1, 1))
  (bn1): BatchNorm2d(16, eps=1e-05, momentum=0.1, affine=True, track_running_stats=True)
  (max_pool1): MaxPool2d(kernel_size=3, stride=3, padding=1, dilation=1, ceil_mode=False)
  (conv3): Conv2d(16, 32, kernel_size=(3, 3), stride=(1, 1), padding=(1, 1))
  (max_pool2): MaxPool2d(kernel_size=3, stride=3, padding=1, dilation=1, ceil_mode=False)
  (fc1): Linear(in_features=32, out_features=128, bias=True)
  (fc2): Linear(in_features=128, out_features=256, bias=True)
  (bn2): BatchNorm1d(256, eps=1e-05, momentum=0.1, affine=True, track_running_stats=True)
  (loc_fc1): Linear(in_features=2, out_features=128, bias=True)
  (loc_fc2): Linear(in_features=128, out_features=256, bias=True)
)
CoreNetwork(
  (stacked_lstm): LSTM(256, 256, batch_first=True)
)
LocationNetwork(
  (fc): Linear(in_features=256, out_features=2, bias=True)
)
ActionNetwork(
  (fc): Linear(in_features=256, out_features=4, bias=True)
)
BaselineNetwork(
  (fc): Linear(in_features=256, out_features=1, bias=True)
)
[*] Loading model from ./ckpt
/Users/KarakoA/Documents/Personal/RAM/VAM-2/src/ckpt/ram_6_8x8_8_ckpt.pth.tar
[*] Loaded ram_6_8x8_8_ckpt.pth.tar checkpoint @ epoch 174

[*] Train on 14400 samples, validate on 1600 samples

Epoch: 175/1000 - LR: 0.001000
GlimpseNetwork(
  (conv1): Conv2d(2, 16, kernel_size=(3, 3), stride=(1, 1), padding=(1, 1))
  (conv2): Conv2d(16, 16, kernel_size=(3, 3), stride=(1, 1), padding=(1, 1))
  (bn1): BatchNorm2d(16, eps=1e-05, momentum=0.1, affine=True, track_running_stats=True)
  (max_pool1): MaxPool2d(kernel_size=3, stride=3, padding=1, dilation=1, ceil_mode=False)
  (conv3): Conv2d(16, 32, kernel_size=(3, 3), stride=(1, 1), padding=(1, 1))
  (max_pool2): MaxPool2d(kernel_size=3, stride=3, padding=1, dilation=1, ceil_mode=False)
  (fc1): Linear(in_features=32, out_features=128, bias=True)
  (fc2): Linear(in_features=128, out_features=256, bias=True)
  (bn2): BatchNorm1d(256, eps=1e-05, momentum=0.1, affine=True, track_running_stats=True)
  (loc_fc1): Linear(in_features=2, out_features=128, bias=True)
  (loc_fc2): Linear(in_features=128, out_features=256, bias=True)
)
CoreNetwork(
  (stacked_lstm): LSTM(256, 256, batch_first=True)
)
LocationNetwork(
  (fc): Linear(in_features=256, out_features=2, bias=True)
)
ActionNetwork(
  (fc): Linear(in_features=256, out_features=4, bias=True)
)
BaselineNetwork(
  (fc): Linear(in_features=256, out_features=1, bias=True)
)
[*] Loading model from ./ckpt
/Users/KarakoA/Documents/Personal/RAM/VAM-2/src/ckpt/ram_6_8x8_8_ckpt.pth.tar
[*] Loaded ram_6_8x8_8_ckpt.pth.tar checkpoint @ epoch 174

[*] Train on 14400 samples, validate on 1600 samples

Epoch: 175/1000 - LR: 0.001000
GlimpseNetwork(
  (conv1): Conv2d(2, 16, kernel_size=(3, 3), stride=(1, 1), padding=(1, 1))
  (conv2): Conv2d(16, 16, kernel_size=(3, 3), stride=(1, 1), padding=(1, 1))
  (bn1): BatchNorm2d(16, eps=1e-05, momentum=0.1, affine=True, track_running_stats=True)
  (max_pool1): MaxPool2d(kernel_size=3, stride=3, padding=1, dilation=1, ceil_mode=False)
  (conv3): Conv2d(16, 32, kernel_size=(3, 3), stride=(1, 1), padding=(1, 1))
  (max_pool2): MaxPool2d(kernel_size=3, stride=3, padding=1, dilation=1, ceil_mode=False)
  (fc1): Linear(in_features=32, out_features=128, bias=True)
  (fc2): Linear(in_features=128, out_features=256, bias=True)
  (bn2): BatchNorm1d(256, eps=1e-05, momentum=0.1, affine=True, track_running_stats=True)
  (loc_fc1): Linear(in_features=2, out_features=128, bias=True)
  (loc_fc2): Linear(in_features=128, out_features=256, bias=True)
)
CoreNetwork(
  (stacked_lstm): LSTM(256, 256, batch_first=True)
)
LocationNetwork(
  (fc): Linear(in_features=256, out_features=2, bias=True)
)
ActionNetwork(
  (fc): Linear(in_features=256, out_features=4, bias=True)
)
BaselineNetwork(
  (fc): Linear(in_features=256, out_features=1, bias=True)
)
[*] Loading model from ./ckpt
/Users/KarakoA/Documents/Personal/RAM/VAM-2/src/ckpt/ram_6_8x8_8_ckpt.pth.tar
[*] Loaded ram_6_8x8_8_ckpt.pth.tar checkpoint @ epoch 174

[*] Train on 14400 samples, validate on 1600 samples

Epoch: 175/1000 - LR: 0.001000
GlimpseNetwork(
  (conv1): Conv2d(2, 16, kernel_size=(3, 3), stride=(1, 1), padding=(1, 1))
  (conv2): Conv2d(16, 16, kernel_size=(3, 3), stride=(1, 1), padding=(1, 1))
  (bn1): BatchNorm2d(16, eps=1e-05, momentum=0.1, affine=True, track_running_stats=True)
  (max_pool1): MaxPool2d(kernel_size=3, stride=3, padding=1, dilation=1, ceil_mode=False)
  (conv3): Conv2d(16, 32, kernel_size=(3, 3), stride=(1, 1), padding=(1, 1))
  (max_pool2): MaxPool2d(kernel_size=3, stride=3, padding=1, dilation=1, ceil_mode=False)
  (fc1): Linear(in_features=32, out_features=128, bias=True)
  (fc2): Linear(in_features=128, out_features=256, bias=True)
  (bn2): BatchNorm1d(256, eps=1e-05, momentum=0.1, affine=True, track_running_stats=True)
  (loc_fc1): Linear(in_features=2, out_features=128, bias=True)
  (loc_fc2): Linear(in_features=128, out_features=256, bias=True)
)
CoreNetwork(
  (stacked_lstm): LSTM(256, 256, batch_first=True)
)
LocationNetwork(
  (fc): Linear(in_features=256, out_features=2, bias=True)
)
ActionNetwork(
  (fc): Linear(in_features=256, out_features=4, bias=True)
)
BaselineNetwork(
  (fc): Linear(in_features=256, out_features=1, bias=True)
)
[*] Loading model from ./ckpt
/Users/KarakoA/Documents/Personal/RAM/VAM-2/src/ckpt/ram_6_8x8_8_ckpt.pth.tar
[*] Loaded ram_6_8x8_8_ckpt.pth.tar checkpoint @ epoch 174

[*] Train on 14400 samples, validate on 1600 samples

Epoch: 175/1000 - LR: 0.001000
GlimpseNetwork(
  (conv1): Conv2d(2, 16, kernel_size=(3, 3), stride=(1, 1), padding=(1, 1))
  (conv2): Conv2d(16, 16, kernel_size=(3, 3), stride=(1, 1), padding=(1, 1))
  (bn1): BatchNorm2d(16, eps=1e-05, momentum=0.1, affine=True, track_running_stats=True)
  (max_pool1): MaxPool2d(kernel_size=3, stride=3, padding=1, dilation=1, ceil_mode=False)
  (conv3): Conv2d(16, 32, kernel_size=(3, 3), stride=(1, 1), padding=(1, 1))
  (max_pool2): MaxPool2d(kernel_size=3, stride=3, padding=1, dilation=1, ceil_mode=False)
  (fc1): Linear(in_features=32, out_features=128, bias=True)
  (fc2): Linear(in_features=128, out_features=256, bias=True)
  (bn2): BatchNorm1d(256, eps=1e-05, momentum=0.1, affine=True, track_running_stats=True)
  (loc_fc1): Linear(in_features=2, out_features=128, bias=True)
  (loc_fc2): Linear(in_features=128, out_features=256, bias=True)
)
CoreNetwork(
  (stacked_lstm): LSTM(256, 256, batch_first=True)
)
LocationNetwork(
  (fc): Linear(in_features=256, out_features=2, bias=True)
)
ActionNetwork(
  (fc): Linear(in_features=256, out_features=4, bias=True)
)
BaselineNetwork(
  (fc): Linear(in_features=256, out_features=1, bias=True)
)
[*] Loading model from ./ckpt
/Users/KarakoA/Documents/Personal/RAM/VAM-2/src/ckpt/ram_6_8x8_8_ckpt.pth.tar
[*] Loaded ram_6_8x8_8_ckpt.pth.tar checkpoint @ epoch 174

[*] Train on 14400 samples, validate on 1600 samples

Epoch: 175/1000 - LR: 0.001000
GlimpseNetwork(
  (conv1): Conv2d(2, 16, kernel_size=(3, 3), stride=(1, 1), padding=(1, 1))
  (conv2): Conv2d(16, 16, kernel_size=(3, 3), stride=(1, 1), padding=(1, 1))
  (bn1): BatchNorm2d(16, eps=1e-05, momentum=0.1, affine=True, track_running_stats=True)
  (max_pool1): MaxPool2d(kernel_size=3, stride=3, padding=1, dilation=1, ceil_mode=False)
  (conv3): Conv2d(16, 32, kernel_size=(3, 3), stride=(1, 1), padding=(1, 1))
  (max_pool2): MaxPool2d(kernel_size=3, stride=3, padding=1, dilation=1, ceil_mode=False)
  (fc1): Linear(in_features=32, out_features=128, bias=True)
  (fc2): Linear(in_features=128, out_features=256, bias=True)
  (bn2): BatchNorm1d(256, eps=1e-05, momentum=0.1, affine=True, track_running_stats=True)
  (loc_fc1): Linear(in_features=2, out_features=128, bias=True)
  (loc_fc2): Linear(in_features=128, out_features=256, bias=True)
)
CoreNetwork(
  (stacked_lstm): LSTM(256, 256, batch_first=True)
)
LocationNetwork(
  (fc): Linear(in_features=256, out_features=2, bias=True)
)
ActionNetwork(
  (fc): Linear(in_features=256, out_features=4, bias=True)
)
BaselineNetwork(
  (fc): Linear(in_features=256, out_features=1, bias=True)
)
[*] Loading model from ./ckpt
/Users/KarakoA/Documents/Personal/RAM/VAM-2/src/ckpt/ram_6_8x8_8_ckpt.pth.tar
[*] Loaded ram_6_8x8_8_ckpt.pth.tar checkpoint @ epoch 174

[*] Train on 14400 samples, validate on 1600 samples

Epoch: 175/1000 - LR: 0.001000
GlimpseNetwork(
  (conv1): Conv2d(2, 16, kernel_size=(3, 3), stride=(1, 1), padding=(1, 1))
  (conv2): Conv2d(16, 16, kernel_size=(3, 3), stride=(1, 1), padding=(1, 1))
  (bn1): BatchNorm2d(16, eps=1e-05, momentum=0.1, affine=True, track_running_stats=True)
  (max_pool1): MaxPool2d(kernel_size=3, stride=3, padding=1, dilation=1, ceil_mode=False)
  (conv3): Conv2d(16, 32, kernel_size=(3, 3), stride=(1, 1), padding=(1, 1))
  (max_pool2): MaxPool2d(kernel_size=3, stride=3, padding=1, dilation=1, ceil_mode=False)
  (fc1): Linear(in_features=32, out_features=128, bias=True)
  (fc2): Linear(in_features=128, out_features=256, bias=True)
  (bn2): BatchNorm1d(256, eps=1e-05, momentum=0.1, affine=True, track_running_stats=True)
  (loc_fc1): Linear(in_features=2, out_features=128, bias=True)
  (loc_fc2): Linear(in_features=128, out_features=256, bias=True)
)
CoreNetwork(
  (stacked_lstm): LSTM(256, 256, batch_first=True)
)
LocationNetwork(
  (fc): Linear(in_features=256, out_features=2, bias=True)
)
ActionNetwork(
  (fc): Linear(in_features=256, out_features=4, bias=True)
)
BaselineNetwork(
  (fc): Linear(in_features=256, out_features=1, bias=True)
)
[*] Loading model from ./ckpt
/Users/KarakoA/Documents/Personal/RAM/VAM-2/src/ckpt/ram_6_8x8_8_ckpt.pth.tar
[*] Loaded ram_6_8x8_8_ckpt.pth.tar checkpoint @ epoch 174

[*] Train on 14400 samples, validate on 1600 samples

Epoch: 175/1000 - LR: 0.001000
GlimpseNetwork(
  (conv1): Conv2d(2, 16, kernel_size=(3, 3), stride=(1, 1), padding=(1, 1))
  (conv2): Conv2d(16, 16, kernel_size=(3, 3), stride=(1, 1), padding=(1, 1))
  (bn1): BatchNorm2d(16, eps=1e-05, momentum=0.1, affine=True, track_running_stats=True)
  (max_pool1): MaxPool2d(kernel_size=3, stride=3, padding=1, dilation=1, ceil_mode=False)
  (conv3): Conv2d(16, 32, kernel_size=(3, 3), stride=(1, 1), padding=(1, 1))
  (max_pool2): MaxPool2d(kernel_size=3, stride=3, padding=1, dilation=1, ceil_mode=False)
  (fc1): Linear(in_features=32, out_features=128, bias=True)
  (fc2): Linear(in_features=128, out_features=256, bias=True)
  (bn2): BatchNorm1d(256, eps=1e-05, momentum=0.1, affine=True, track_running_stats=True)
  (loc_fc1): Linear(in_features=2, out_features=128, bias=True)
  (loc_fc2): Linear(in_features=128, out_features=256, bias=True)
)
CoreNetwork(
  (stacked_lstm): LSTM(256, 256, batch_first=True)
)
LocationNetwork(
  (fc): Linear(in_features=256, out_features=2, bias=True)
)
ActionNetwork(
  (fc): Linear(in_features=256, out_features=4, bias=True)
)
BaselineNetwork(
  (fc): Linear(in_features=256, out_features=1, bias=True)
)
[*] Loading model from ./ckpt
/Users/KarakoA/Documents/Personal/RAM/VAM-2/src/ckpt/ram_6_8x8_8_ckpt.pth.tar
[*] Loaded ram_6_8x8_8_ckpt.pth.tar checkpoint @ epoch 174

[*] Train on 14400 samples, validate on 1600 samples

Epoch: 175/1000 - LR: 0.001000
GlimpseNetwork(
  (conv1): Conv2d(2, 16, kernel_size=(3, 3), stride=(1, 1), padding=(1, 1))
  (conv2): Conv2d(16, 16, kernel_size=(3, 3), stride=(1, 1), padding=(1, 1))
  (bn1): BatchNorm2d(16, eps=1e-05, momentum=0.1, affine=True, track_running_stats=True)
  (max_pool1): MaxPool2d(kernel_size=3, stride=3, padding=1, dilation=1, ceil_mode=False)
  (conv3): Conv2d(16, 32, kernel_size=(3, 3), stride=(1, 1), padding=(1, 1))
  (max_pool2): MaxPool2d(kernel_size=3, stride=3, padding=1, dilation=1, ceil_mode=False)
  (fc1): Linear(in_features=32, out_features=128, bias=True)
  (fc2): Linear(in_features=128, out_features=256, bias=True)
  (bn2): BatchNorm1d(256, eps=1e-05, momentum=0.1, affine=True, track_running_stats=True)
  (loc_fc1): Linear(in_features=2, out_features=128, bias=True)
  (loc_fc2): Linear(in_features=128, out_features=256, bias=True)
)
CoreNetwork(
  (stacked_lstm): LSTM(256, 256, batch_first=True)
)
LocationNetwork(
  (fc): Linear(in_features=256, out_features=2, bias=True)
)
ActionNetwork(
  (fc): Linear(in_features=256, out_features=4, bias=True)
)
BaselineNetwork(
  (fc): Linear(in_features=256, out_features=1, bias=True)
)
[*] Loading model from ./ckpt
/Users/KarakoA/Documents/Personal/RAM/VAM-2/src/ckpt/ram_6_8x8_8_ckpt.pth.tar
[*] Loaded ram_6_8x8_8_ckpt.pth.tar checkpoint @ epoch 174

[*] Train on 14400 samples, validate on 1600 samples

Epoch: 175/1000 - LR: 0.001000
GlimpseNetwork(
  (conv1): Conv2d(2, 16, kernel_size=(3, 3), stride=(1, 1), padding=(1, 1))
  (conv2): Conv2d(16, 16, kernel_size=(3, 3), stride=(1, 1), padding=(1, 1))
  (bn1): BatchNorm2d(16, eps=1e-05, momentum=0.1, affine=True, track_running_stats=True)
  (max_pool1): MaxPool2d(kernel_size=3, stride=3, padding=1, dilation=1, ceil_mode=False)
  (conv3): Conv2d(16, 32, kernel_size=(3, 3), stride=(1, 1), padding=(1, 1))
  (max_pool2): MaxPool2d(kernel_size=3, stride=3, padding=1, dilation=1, ceil_mode=False)
  (fc1): Linear(in_features=32, out_features=128, bias=True)
  (fc2): Linear(in_features=128, out_features=256, bias=True)
  (bn2): BatchNorm1d(256, eps=1e-05, momentum=0.1, affine=True, track_running_stats=True)
  (loc_fc1): Linear(in_features=2, out_features=128, bias=True)
  (loc_fc2): Linear(in_features=128, out_features=256, bias=True)
)
CoreNetwork(
  (stacked_lstm): LSTM(256, 256, batch_first=True)
)
LocationNetwork(
  (fc): Linear(in_features=256, out_features=2, bias=True)
)
ActionNetwork(
  (fc): Linear(in_features=256, out_features=4, bias=True)
)
BaselineNetwork(
  (fc): Linear(in_features=256, out_features=1, bias=True)
)
[*] Loading model from ./ckpt
/Users/KarakoA/Documents/Personal/RAM/VAM-2/src/ckpt/ram_6_8x8_8_ckpt.pth.tar
[*] Loaded ram_6_8x8_8_ckpt.pth.tar checkpoint @ epoch 174

[*] Train on 14400 samples, validate on 1600 samples

Epoch: 175/1000 - LR: 0.001000
GlimpseNetwork(
  (conv1): Conv2d(2, 16, kernel_size=(3, 3), stride=(1, 1), padding=(1, 1))
  (conv2): Conv2d(16, 16, kernel_size=(3, 3), stride=(1, 1), padding=(1, 1))
  (bn1): BatchNorm2d(16, eps=1e-05, momentum=0.1, affine=True, track_running_stats=True)
  (max_pool1): MaxPool2d(kernel_size=3, stride=3, padding=1, dilation=1, ceil_mode=False)
  (conv3): Conv2d(16, 32, kernel_size=(3, 3), stride=(1, 1), padding=(1, 1))
  (max_pool2): MaxPool2d(kernel_size=3, stride=3, padding=1, dilation=1, ceil_mode=False)
  (fc1): Linear(in_features=32, out_features=128, bias=True)
  (fc2): Linear(in_features=128, out_features=256, bias=True)
  (bn2): BatchNorm1d(256, eps=1e-05, momentum=0.1, affine=True, track_running_stats=True)
  (loc_fc1): Linear(in_features=2, out_features=128, bias=True)
  (loc_fc2): Linear(in_features=128, out_features=256, bias=True)
)
CoreNetwork(
  (stacked_lstm): LSTM(256, 256, batch_first=True)
)
LocationNetwork(
  (fc): Linear(in_features=256, out_features=2, bias=True)
)
ActionNetwork(
  (fc): Linear(in_features=256, out_features=4, bias=True)
)
BaselineNetwork(
  (fc): Linear(in_features=256, out_features=1, bias=True)
)
[*] Loading model from ./ckpt
/Users/KarakoA/Documents/Personal/RAM/VAM-2/src/ckpt/ram_6_8x8_8_ckpt.pth.tar
[*] Loaded ram_6_8x8_8_ckpt.pth.tar checkpoint @ epoch 174

[*] Train on 14400 samples, validate on 1600 samples

Epoch: 175/1000 - LR: 0.001000
GlimpseNetwork(
  (conv1): Conv2d(2, 16, kernel_size=(3, 3), stride=(1, 1), padding=(1, 1))
  (conv2): Conv2d(16, 16, kernel_size=(3, 3), stride=(1, 1), padding=(1, 1))
  (bn1): BatchNorm2d(16, eps=1e-05, momentum=0.1, affine=True, track_running_stats=True)
  (max_pool1): MaxPool2d(kernel_size=3, stride=3, padding=1, dilation=1, ceil_mode=False)
  (conv3): Conv2d(16, 32, kernel_size=(3, 3), stride=(1, 1), padding=(1, 1))
  (max_pool2): MaxPool2d(kernel_size=3, stride=3, padding=1, dilation=1, ceil_mode=False)
  (fc1): Linear(in_features=32, out_features=128, bias=True)
  (fc2): Linear(in_features=128, out_features=256, bias=True)
  (bn2): BatchNorm1d(256, eps=1e-05, momentum=0.1, affine=True, track_running_stats=True)
  (loc_fc1): Linear(in_features=2, out_features=128, bias=True)
  (loc_fc2): Linear(in_features=128, out_features=256, bias=True)
)
CoreNetwork(
  (stacked_lstm): LSTM(256, 256, batch_first=True)
)
LocationNetwork(
  (fc): Linear(in_features=256, out_features=2, bias=True)
)
ActionNetwork(
  (fc): Linear(in_features=256, out_features=4, bias=True)
)
BaselineNetwork(
  (fc): Linear(in_features=256, out_features=1, bias=True)
)
[*] Loading model from ./ckpt
/Users/KarakoA/Documents/Personal/RAM/VAM-2/src/ckpt/ram_6_8x8_8_ckpt.pth.tar
[*] Loaded ram_6_8x8_8_ckpt.pth.tar checkpoint @ epoch 174

[*] Train on 14400 samples, validate on 1600 samples

Epoch: 175/1000 - LR: 0.001000
GlimpseNetwork(
  (conv1): Conv2d(2, 16, kernel_size=(3, 3), stride=(1, 1), padding=(1, 1))
  (conv2): Conv2d(16, 16, kernel_size=(3, 3), stride=(1, 1), padding=(1, 1))
  (bn1): BatchNorm2d(16, eps=1e-05, momentum=0.1, affine=True, track_running_stats=True)
  (max_pool1): MaxPool2d(kernel_size=3, stride=3, padding=1, dilation=1, ceil_mode=False)
  (conv3): Conv2d(16, 32, kernel_size=(3, 3), stride=(1, 1), padding=(1, 1))
  (max_pool2): MaxPool2d(kernel_size=3, stride=3, padding=1, dilation=1, ceil_mode=False)
  (fc1): Linear(in_features=32, out_features=128, bias=True)
  (fc2): Linear(in_features=128, out_features=256, bias=True)
  (bn2): BatchNorm1d(256, eps=1e-05, momentum=0.1, affine=True, track_running_stats=True)
  (loc_fc1): Linear(in_features=2, out_features=128, bias=True)
  (loc_fc2): Linear(in_features=128, out_features=256, bias=True)
)
CoreNetwork(
  (stacked_lstm): LSTM(256, 256, batch_first=True)
)
LocationNetwork(
  (fc): Linear(in_features=256, out_features=2, bias=True)
)
ActionNetwork(
  (fc): Linear(in_features=256, out_features=4, bias=True)
)
BaselineNetwork(
  (fc): Linear(in_features=256, out_features=1, bias=True)
)
[*] Loading model from ./ckpt
/Users/KarakoA/Documents/Personal/RAM/VAM-2/src/ckpt/ram_6_8x8_8_ckpt.pth.tar
[*] Loaded ram_6_8x8_8_ckpt.pth.tar checkpoint @ epoch 174

[*] Train on 14400 samples, validate on 1600 samples

Epoch: 175/1000 - LR: 0.001000
GlimpseNetwork(
  (conv1): Conv2d(2, 16, kernel_size=(3, 3), stride=(1, 1), padding=(1, 1))
  (conv2): Conv2d(16, 16, kernel_size=(3, 3), stride=(1, 1), padding=(1, 1))
  (bn1): BatchNorm2d(16, eps=1e-05, momentum=0.1, affine=True, track_running_stats=True)
  (max_pool1): MaxPool2d(kernel_size=3, stride=3, padding=1, dilation=1, ceil_mode=False)
  (conv3): Conv2d(16, 32, kernel_size=(3, 3), stride=(1, 1), padding=(1, 1))
  (max_pool2): MaxPool2d(kernel_size=3, stride=3, padding=1, dilation=1, ceil_mode=False)
  (fc1): Linear(in_features=32, out_features=128, bias=True)
  (fc2): Linear(in_features=128, out_features=256, bias=True)
  (bn2): BatchNorm1d(256, eps=1e-05, momentum=0.1, affine=True, track_running_stats=True)
  (loc_fc1): Linear(in_features=2, out_features=128, bias=True)
  (loc_fc2): Linear(in_features=128, out_features=256, bias=True)
)
CoreNetwork(
  (stacked_lstm): LSTM(256, 256, batch_first=True)
)
LocationNetwork(
  (fc): Linear(in_features=256, out_features=2, bias=True)
)
ActionNetwork(
  (fc): Linear(in_features=256, out_features=4, bias=True)
)
BaselineNetwork(
  (fc): Linear(in_features=256, out_features=1, bias=True)
)
[*] Loading model from ./ckpt
/Users/KarakoA/Documents/Personal/RAM/VAM-2/src/ckpt/ram_6_8x8_8_ckpt.pth.tar
[*] Loaded ram_6_8x8_8_ckpt.pth.tar checkpoint @ epoch 174

[*] Train on 14400 samples, validate on 1600 samples

Epoch: 175/1000 - LR: 0.001000
GlimpseNetwork(
  (conv1): Conv2d(2, 16, kernel_size=(3, 3), stride=(1, 1), padding=(1, 1))
  (conv2): Conv2d(16, 16, kernel_size=(3, 3), stride=(1, 1), padding=(1, 1))
  (bn1): BatchNorm2d(16, eps=1e-05, momentum=0.1, affine=True, track_running_stats=True)
  (max_pool1): MaxPool2d(kernel_size=3, stride=3, padding=1, dilation=1, ceil_mode=False)
  (conv3): Conv2d(16, 32, kernel_size=(3, 3), stride=(1, 1), padding=(1, 1))
  (max_pool2): MaxPool2d(kernel_size=3, stride=3, padding=1, dilation=1, ceil_mode=False)
  (fc1): Linear(in_features=32, out_features=128, bias=True)
  (fc2): Linear(in_features=128, out_features=256, bias=True)
  (bn2): BatchNorm1d(256, eps=1e-05, momentum=0.1, affine=True, track_running_stats=True)
  (loc_fc1): Linear(in_features=2, out_features=128, bias=True)
  (loc_fc2): Linear(in_features=128, out_features=256, bias=True)
)
CoreNetwork(
  (stacked_lstm): LSTM(256, 256, batch_first=True)
)
LocationNetwork(
  (fc): Linear(in_features=256, out_features=2, bias=True)
)
ActionNetwork(
  (fc): Linear(in_features=256, out_features=4, bias=True)
)
BaselineNetwork(
  (fc): Linear(in_features=256, out_features=1, bias=True)
)
[*] Loading model from ./ckpt
/Users/KarakoA/Documents/Personal/RAM/VAM-2/src/ckpt/ram_6_8x8_8_ckpt.pth.tar
[*] Loaded ram_6_8x8_8_ckpt.pth.tar checkpoint @ epoch 174

[*] Train on 14400 samples, validate on 1600 samples

Epoch: 175/1000 - LR: 0.001000
GlimpseNetwork(
  (conv1): Conv2d(2, 16, kernel_size=(3, 3), stride=(1, 1), padding=(1, 1))
  (conv2): Conv2d(16, 16, kernel_size=(3, 3), stride=(1, 1), padding=(1, 1))
  (bn1): BatchNorm2d(16, eps=1e-05, momentum=0.1, affine=True, track_running_stats=True)
  (max_pool1): MaxPool2d(kernel_size=3, stride=3, padding=1, dilation=1, ceil_mode=False)
  (conv3): Conv2d(16, 32, kernel_size=(3, 3), stride=(1, 1), padding=(1, 1))
  (max_pool2): MaxPool2d(kernel_size=3, stride=3, padding=1, dilation=1, ceil_mode=False)
  (fc1): Linear(in_features=32, out_features=128, bias=True)
  (fc2): Linear(in_features=128, out_features=256, bias=True)
  (bn2): BatchNorm1d(256, eps=1e-05, momentum=0.1, affine=True, track_running_stats=True)
  (loc_fc1): Linear(in_features=2, out_features=128, bias=True)
  (loc_fc2): Linear(in_features=128, out_features=256, bias=True)
)
CoreNetwork(
  (stacked_lstm): LSTM(256, 256, batch_first=True)
)
LocationNetwork(
  (fc): Linear(in_features=256, out_features=2, bias=True)
)
ActionNetwork(
  (fc): Linear(in_features=256, out_features=4, bias=True)
)
BaselineNetwork(
  (fc): Linear(in_features=256, out_features=1, bias=True)
)
[*] Loading model from ./ckpt
/Users/KarakoA/Documents/Personal/RAM/VAM-2/src/ckpt/ram_6_8x8_8_ckpt.pth.tar
[*] Loaded ram_6_8x8_8_ckpt.pth.tar checkpoint @ epoch 174

[*] Train on 14400 samples, validate on 1600 samples

Epoch: 175/1000 - LR: 0.001000
GlimpseNetwork(
  (conv1): Conv2d(2, 16, kernel_size=(3, 3), stride=(1, 1), padding=(1, 1))
  (conv2): Conv2d(16, 16, kernel_size=(3, 3), stride=(1, 1), padding=(1, 1))
  (bn1): BatchNorm2d(16, eps=1e-05, momentum=0.1, affine=True, track_running_stats=True)
  (max_pool1): MaxPool2d(kernel_size=3, stride=3, padding=1, dilation=1, ceil_mode=False)
  (conv3): Conv2d(16, 32, kernel_size=(3, 3), stride=(1, 1), padding=(1, 1))
  (max_pool2): MaxPool2d(kernel_size=3, stride=3, padding=1, dilation=1, ceil_mode=False)
  (fc1): Linear(in_features=32, out_features=128, bias=True)
  (fc2): Linear(in_features=128, out_features=256, bias=True)
  (bn2): BatchNorm1d(256, eps=1e-05, momentum=0.1, affine=True, track_running_stats=True)
  (loc_fc1): Linear(in_features=2, out_features=128, bias=True)
  (loc_fc2): Linear(in_features=128, out_features=256, bias=True)
)
CoreNetwork(
  (stacked_lstm): LSTM(256, 256, batch_first=True)
)
LocationNetwork(
  (fc): Linear(in_features=256, out_features=2, bias=True)
)
ActionNetwork(
  (fc): Linear(in_features=256, out_features=4, bias=True)
)
BaselineNetwork(
  (fc): Linear(in_features=256, out_features=1, bias=True)
)
[*] Loading model from ./ckpt
/Users/KarakoA/Documents/Personal/RAM/VAM-2/src/ckpt/ram_6_8x8_8_ckpt.pth.tar
[*] Loaded ram_6_8x8_8_ckpt.pth.tar checkpoint @ epoch 174

[*] Train on 14400 samples, validate on 1600 samples

Epoch: 175/1000 - LR: 0.001000
train loss: 0.515 - train acc: 83.715 - action: 0.392, baseline: 0.133 reinforce: -0.011 - val loss: 4.877 - val acc: 57.750
…
train loss: 0.330 - train acc: 90.382 - action: 0.237, baseline: 0.085 reinforce: 0.008 - val loss: 8.383 - val acc: 46.250

Epoch: 242/1000 - LR: 0.000100
train loss: 0.297 - train acc: 90.431 - action: 0.236, baseline: 0.085 reinforce: -0.024 - val loss: 9.103 - val acc: 44.188

Epoch: 243/1000 - LR: 0.000100
train loss: 0.277 - train acc: 90.924 - action: 0.230, baseline: 0.081 reinforce: -0.033 - val loss: 9.431 - val acc: 43.188

Epoch: 244/1000 - LR: 0.000100
train loss: 0.300 - train acc: 90.882 - action: 0.232, baseline: 0.081 reinforce: -0.013 - val loss: 8.971 - val acc: 44.438

Epoch: 245/1000 - LR: 0.000100
GlimpseNetwork(
  (conv1): Conv2d(2, 16, kernel_size=(3, 3), stride=(1, 1), padding=(1, 1))
  (conv2): Conv2d(16, 16, kernel_size=(3, 3), stride=(1, 1), padding=(1, 1))
  (bn1): BatchNorm2d(16, eps=1e-05, momentum=0.1, affine=True, track_running_stats=True)
  (max_pool1): MaxPool2d(kernel_size=3, stride=3, padding=1, dilation=1, ceil_mode=False)
  (conv3): Conv2d(16, 32, kernel_size=(3, 3), stride=(1, 1), padding=(1, 1))
  (max_pool2): MaxPool2d(kernel_size=3, stride=3, padding=1, dilation=1, ceil_mode=False)
  (fc1): Linear(in_features=32, out_features=128, bias=True)
  (fc2): Linear(in_features=128, out_features=256, bias=True)
  (bn2): BatchNorm1d(256, eps=1e-05, momentum=0.1, affine=True, track_running_stats=True)
  (loc_fc1): Linear(in_features=2, out_features=128, bias=True)
  (loc_fc2): Linear(in_features=128, out_features=256, bias=True)
)
CoreNetwork(
  (stacked_lstm): LSTM(256, 256, batch_first=True)
)
LocationNetwork(
  (fc): Linear(in_features=256, out_features=2, bias=True)
)
ActionNetwork(
  (fc): Linear(in_features=256, out_features=4, bias=True)
)
BaselineNetwork(
  (fc): Linear(in_features=256, out_features=1, bias=True)
)
[*] Loading model from ./ckpt
/Users/KarakoA/Documents/Personal/RAM/VAM-2/src/ckpt/ram_6_8x8_8_ckpt.pth.tar
[*] Loaded ram_6_8x8_8_ckpt.pth.tar checkpoint @ epoch 160

[*] Train on 14400 samples, validate on 1600 samples

Epoch: 161/1000 - LR: 0.001000
GlimpseNetwork(
  (conv1): Conv2d(2, 16, kernel_size=(3, 3), stride=(1, 1), padding=(1, 1))
  (conv2): Conv2d(16, 16, kernel_size=(3, 3), stride=(1, 1), padding=(1, 1))
  (bn1): BatchNorm2d(16, eps=1e-05, momentum=0.1, affine=True, track_running_stats=True)
  (max_pool1): MaxPool2d(kernel_size=3, stride=3, padding=1, dilation=1, ceil_mode=False)
  (conv3): Conv2d(16, 32, kernel_size=(3, 3), stride=(1, 1), padding=(1, 1))
  (max_pool2): MaxPool2d(kernel_size=3, stride=3, padding=1, dilation=1, ceil_mode=False)
  (fc1): Linear(in_features=32, out_features=128, bias=True)
  (fc2): Linear(in_features=128, out_features=256, bias=True)
  (bn2): BatchNorm1d(256, eps=1e-05, momentum=0.1, affine=True, track_running_stats=True)
  (loc_fc1): Linear(in_features=2, out_features=128, bias=True)
  (loc_fc2): Linear(in_features=128, out_features=256, bias=True)
)
CoreNetwork(
  (stacked_lstm): LSTM(256, 256, batch_first=True)
)
LocationNetwork(
  (fc): Linear(in_features=256, out_features=2, bias=True)
)
ActionNetwork(
  (fc): Linear(in_features=256, out_features=4, bias=True)
)
BaselineNetwork(
  (fc): Linear(in_features=256, out_features=1, bias=True)
)
[*] Loading model from ./ckpt
/Users/KarakoA/Documents/Personal/RAM/VAM-2/src/ckpt/ram_6_8x8_8_ckpt.pth.tar
[*] Loaded ram_6_8x8_8_ckpt.pth.tar checkpoint @ epoch 160

[*] Train on 14400 samples, validate on 1600 samples

Epoch: 161/1000 - LR: 0.001000
GlimpseNetwork(
  (conv1): Conv2d(2, 16, kernel_size=(3, 3), stride=(1, 1), padding=(1, 1))
  (conv2): Conv2d(16, 16, kernel_size=(3, 3), stride=(1, 1), padding=(1, 1))
  (bn1): BatchNorm2d(16, eps=1e-05, momentum=0.1, affine=True, track_running_stats=True)
  (max_pool1): MaxPool2d(kernel_size=3, stride=3, padding=1, dilation=1, ceil_mode=False)
  (conv3): Conv2d(16, 32, kernel_size=(3, 3), stride=(1, 1), padding=(1, 1))
  (max_pool2): MaxPool2d(kernel_size=3, stride=3, padding=1, dilation=1, ceil_mode=False)
  (fc1): Linear(in_features=32, out_features=128, bias=True)
  (fc2): Linear(in_features=128, out_features=256, bias=True)
  (bn2): BatchNorm1d(256, eps=1e-05, momentum=0.1, affine=True, track_running_stats=True)
  (loc_fc1): Linear(in_features=2, out_features=128, bias=True)
  (loc_fc2): Linear(in_features=128, out_features=256, bias=True)
)
CoreNetwork(
  (stacked_lstm): LSTM(256, 256, batch_first=True)
)
LocationNetwork(
  (fc): Linear(in_features=256, out_features=2, bias=True)
)
ActionNetwork(
  (fc): Linear(in_features=256, out_features=4, bias=True)
)
BaselineNetwork(
  (fc): Linear(in_features=256, out_features=1, bias=True)
)
[*] Loading model from ./ckpt
/Users/KarakoA/Documents/Personal/RAM/VAM-2/src/ckpt/ram_6_8x8_8_ckpt.pth.tar
[*] Loaded ram_6_8x8_8_ckpt.pth.tar checkpoint @ epoch 160

[*] Train on 14400 samples, validate on 1600 samples

Epoch: 161/1000 - LR: 0.001000
GlimpseNetwork(
  (conv1): Conv2d(2, 16, kernel_size=(3, 3), stride=(1, 1), padding=(1, 1))
  (conv2): Conv2d(16, 16, kernel_size=(3, 3), stride=(1, 1), padding=(1, 1))
  (bn1): BatchNorm2d(16, eps=1e-05, momentum=0.1, affine=True, track_running_stats=True)
  (max_pool1): MaxPool2d(kernel_size=3, stride=3, padding=1, dilation=1, ceil_mode=False)
  (conv3): Conv2d(16, 32, kernel_size=(3, 3), stride=(1, 1), padding=(1, 1))
  (max_pool2): MaxPool2d(kernel_size=3, stride=3, padding=1, dilation=1, ceil_mode=False)
  (fc1): Linear(in_features=32, out_features=128, bias=True)
  (fc2): Linear(in_features=128, out_features=256, bias=True)
  (bn2): BatchNorm1d(256, eps=1e-05, momentum=0.1, affine=True, track_running_stats=True)
  (loc_fc1): Linear(in_features=2, out_features=128, bias=True)
  (loc_fc2): Linear(in_features=128, out_features=256, bias=True)
)
CoreNetwork(
  (stacked_lstm): LSTM(256, 256, batch_first=True)
)
LocationNetwork(
  (fc): Linear(in_features=256, out_features=2, bias=True)
)
ActionNetwork(
  (fc): Linear(in_features=256, out_features=4, bias=True)
)
BaselineNetwork(
  (fc): Linear(in_features=256, out_features=1, bias=True)
)
[*] Loading model from ./ckpt
/Users/KarakoA/Documents/Personal/RAM/VAM-2/src/ckpt/ram_6_8x8_8_ckpt.pth.tar
[*] Loaded ram_6_8x8_8_ckpt.pth.tar checkpoint @ epoch 160

[*] Train on 14400 samples, validate on 1600 samples

Epoch: 161/1000 - LR: 0.001000
train loss: 0.516 - train acc: 83.715 - action: 0.393, baseline: 0.132 reinforce: -0.010 - val loss: 2.163 - val acc: 73.938
…
